node {
  name: "global_step/Initializer/zeros/shape_as_tensor"
  op: "Const"
  attr {
    key: "_class"
    value {
      list {
        s: "loc:@global_step"
      }
    }
  }
  attr {
    key: "_output_shapes"
    value {
      list {
        shape {
          dim {
          }
        }
      }
    }
  }
  attr {
    key: "dtype"
    value {
      type: DT_INT32
    }
  }
  attr {
    key: "value"
    value {
      tensor {
        dtype: DT_INT32
        tensor_shape {
          dim {
          }
        }
      }
    }
  }
}
node {
  name: "global_step/Initializer/zeros/Const"
  op: "Const"
  attr {
    key: "_class"
    value {
      list {
        s: "loc:@global_step"
      }
    }
  }
  attr {
    key: "_output_shapes"
    value {
      list {
        shape {
        }
      }
    }
  }
  attr {
    key: "dtype"
    value {
      type: DT_INT64
    }
  }
  attr {
    key: "value"
    value {
      tensor {
        dtype: DT_INT64
        tensor_shape {
        }
        int64_val: 0
      }
    }
  }
}
node {
  name: "global_step/Initializer/zeros"
  op: "Fill"
  input: "global_step/Initializer/zeros/shape_as_tensor"
  input: "global_step/Initializer/zeros/Const"
  attr {
    key: "T"
    value {
      type: DT_INT64
    }
  }
  attr {
    key: "_class"
    value {
      list {
        s: "loc:@global_step"
      }
    }
  }
  attr {
    key: "_output_shapes"
    value {
      list {
        shape {
        }
      }
    }
  }
  attr {
    key: "index_type"
    value {
      type: DT_INT32
    }
  }
}
node {
  name: "global_step"
  op: "VariableV2"
  attr {
    key: "_class"
    value {
      list {
        s: "loc:@global_step"
      }
    }
  }
  attr {
    key: "_output_shapes"
    value {
      list {
        shape {
        }
      }
    }
  }
  attr {
    key: "container"
    value {
      s: ""
    }
  }
  attr {
    key: "dtype"
    value {
      type: DT_INT64
    }
  }
  attr {
    key: "shape"
    value {
      shape {
      }
    }
  }
  attr {
    key: "shared_name"
    value {
      s: ""
    }
  }
}
node {
  name: "global_step/Assign"
  op: "Assign"
  input: "global_step"
  input: "global_step/Initializer/zeros"
  attr {
    key: "T"
    value {
      type: DT_INT64
    }
  }
  attr {
    key: "_class"
    value {
      list {
        s: "loc:@global_step"
      }
    }
  }
  attr {
    key: "_output_shapes"
    value {
      list {
        shape {
        }
      }
    }
  }
  attr {
    key: "use_locking"
    value {
      b: true
    }
  }
  attr {
    key: "validate_shape"
    value {
      b: true
    }
  }
}
node {
  name: "global_step/read"
  op: "Identity"
  input: "global_step"
  attr {
    key: "T"
    value {
      type: DT_INT64
    }
  }
  attr {
    key: "_class"
    value {
      list {
        s: "loc:@global_step"
      }
    }
  }
  attr {
    key: "_output_shapes"
    value {
      list {
        shape {
        }
      }
    }
  }
}
node {
  name: "input"
  op: "Placeholder"
  attr {
    key: "_output_shapes"
    value {
      list {
        shape {
          dim {
            size: -1
          }
          dim {
            size: 4200
          }
        }
      }
    }
  }
  attr {
    key: "dtype"
    value {
      type: DT_FLOAT
    }
  }
  attr {
    key: "shape"
    value {
      shape {
        dim {
          size: -1
        }
        dim {
          size: 4200
        }
      }
    }
  }
}
node {
  name: "output"
  op: "Placeholder"
  attr {
    key: "_output_shapes"
    value {
      list {
        shape {
          dim {
            size: -1
          }
        }
      }
    }
  }
  attr {
    key: "dtype"
    value {
      type: DT_BOOL
    }
  }
  attr {
    key: "shape"
    value {
      shape {
        dim {
          size: -1
        }
      }
    }
  }
}
node {
  name: "global_step/IsVariableInitialized"
  op: "IsVariableInitialized"
  input: "global_step"
  attr {
    key: "_class"
    value {
      list {
        s: "loc:@global_step"
      }
    }
  }
  attr {
    key: "_output_shapes"
    value {
      list {
        shape {
        }
      }
    }
  }
  attr {
    key: "dtype"
    value {
      type: DT_INT64
    }
  }
}
node {
  name: "global_step/cond/Switch"
  op: "Switch"
  input: "global_step/IsVariableInitialized"
  input: "global_step/IsVariableInitialized"
  attr {
    key: "T"
    value {
      type: DT_BOOL
    }
  }
  attr {
    key: "_output_shapes"
    value {
      list {
        shape {
        }
        shape {
        }
      }
    }
  }
}
node {
  name: "global_step/cond/switch_t"
  op: "Identity"
  input: "global_step/cond/Switch:1"
  attr {
    key: "T"
    value {
      type: DT_BOOL
    }
  }
  attr {
    key: "_output_shapes"
    value {
      list {
        shape {
        }
      }
    }
  }
}
node {
  name: "global_step/cond/switch_f"
  op: "Identity"
  input: "global_step/cond/Switch"
  attr {
    key: "T"
    value {
      type: DT_BOOL
    }
  }
  attr {
    key: "_output_shapes"
    value {
      list {
        shape {
        }
      }
    }
  }
}
node {
  name: "global_step/cond/pred_id"
  op: "Identity"
  input: "global_step/IsVariableInitialized"
  attr {
    key: "T"
    value {
      type: DT_BOOL
    }
  }
  attr {
    key: "_output_shapes"
    value {
      list {
        shape {
        }
      }
    }
  }
}
node {
  name: "global_step/cond/read"
  op: "Identity"
  input: "global_step/cond/read/Switch:1"
  attr {
    key: "T"
    value {
      type: DT_INT64
    }
  }
  attr {
    key: "_output_shapes"
    value {
      list {
        shape {
        }
      }
    }
  }
}
node {
  name: "global_step/cond/read/Switch"
  op: "RefSwitch"
  input: "global_step"
  input: "global_step/cond/pred_id"
  attr {
    key: "T"
    value {
      type: DT_INT64
    }
  }
  attr {
    key: "_class"
    value {
      list {
        s: "loc:@global_step"
      }
    }
  }
  attr {
    key: "_output_shapes"
    value {
      list {
        shape {
        }
        shape {
        }
      }
    }
  }
}
node {
  name: "global_step/cond/Switch_1"
  op: "Switch"
  input: "global_step/Initializer/zeros"
  input: "global_step/cond/pred_id"
  attr {
    key: "T"
    value {
      type: DT_INT64
    }
  }
  attr {
    key: "_class"
    value {
      list {
        s: "loc:@global_step"
      }
    }
  }
  attr {
    key: "_output_shapes"
    value {
      list {
        shape {
        }
        shape {
        }
      }
    }
  }
}
node {
  name: "global_step/cond/Merge"
  op: "Merge"
  input: "global_step/cond/Switch_1"
  input: "global_step/cond/read"
  attr {
    key: "N"
    value {
      i: 2
    }
  }
  attr {
    key: "T"
    value {
      type: DT_INT64
    }
  }
  attr {
    key: "_output_shapes"
    value {
      list {
        shape {
        }
        shape {
        }
      }
    }
  }
}
node {
  name: "global_step/add/y"
  op: "Const"
  attr {
    key: "_output_shapes"
    value {
      list {
        shape {
        }
      }
    }
  }
  attr {
    key: "dtype"
    value {
      type: DT_INT64
    }
  }
  attr {
    key: "value"
    value {
      tensor {
        dtype: DT_INT64
        tensor_shape {
        }
        int64_val: 0
      }
    }
  }
}
node {
  name: "global_step/add"
  op: "Add"
  input: "global_step/cond/Merge"
  input: "global_step/add/y"
  attr {
    key: "T"
    value {
      type: DT_INT64
    }
  }
  attr {
    key: "_output_shapes"
    value {
      list {
        shape {
        }
      }
    }
  }
}
node {
  name: "device_dummy_0/Initializer/random_uniform/shape"
  op: "Const"
  attr {
    key: "_class"
    value {
      list {
        s: "loc:@device_dummy_0"
      }
    }
  }
  attr {
    key: "_output_shapes"
    value {
      list {
        shape {
          dim {
            size: 1
          }
        }
      }
    }
  }
  attr {
    key: "dtype"
    value {
      type: DT_INT32
    }
  }
  attr {
    key: "value"
    value {
      tensor {
        dtype: DT_INT32
        tensor_shape {
          dim {
            size: 1
          }
        }
        int_val: 0
      }
    }
  }
}
node {
  name: "device_dummy_0/Initializer/random_uniform/min"
  op: "Const"
  attr {
    key: "_class"
    value {
      list {
        s: "loc:@device_dummy_0"
      }
    }
  }
  attr {
    key: "_output_shapes"
    value {
      list {
        shape {
        }
      }
    }
  }
  attr {
    key: "dtype"
    value {
      type: DT_FLOAT
    }
  }
  attr {
    key: "value"
    value {
      tensor {
        dtype: DT_FLOAT
        tensor_shape {
        }
        float_val: -1.7320507764816284
      }
    }
  }
}
node {
  name: "device_dummy_0/Initializer/random_uniform/max"
  op: "Const"
  attr {
    key: "_class"
    value {
      list {
        s: "loc:@device_dummy_0"
      }
    }
  }
  attr {
    key: "_output_shapes"
    value {
      list {
        shape {
        }
      }
    }
  }
  attr {
    key: "dtype"
    value {
      type: DT_FLOAT
    }
  }
  attr {
    key: "value"
    value {
      tensor {
        dtype: DT_FLOAT
        tensor_shape {
        }
        float_val: 1.7320507764816284
      }
    }
  }
}
node {
  name: "device_dummy_0/Initializer/random_uniform/RandomUniform"
  op: "RandomUniform"
  input: "device_dummy_0/Initializer/random_uniform/shape"
  attr {
    key: "T"
    value {
      type: DT_INT32
    }
  }
  attr {
    key: "_class"
    value {
      list {
        s: "loc:@device_dummy_0"
      }
    }
  }
  attr {
    key: "_output_shapes"
    value {
      list {
        shape {
          dim {
          }
        }
      }
    }
  }
  attr {
    key: "dtype"
    value {
      type: DT_FLOAT
    }
  }
  attr {
    key: "seed"
    value {
      i: 0
    }
  }
  attr {
    key: "seed2"
    value {
      i: 0
    }
  }
}
node {
  name: "device_dummy_0/Initializer/random_uniform/sub"
  op: "Sub"
  input: "device_dummy_0/Initializer/random_uniform/max"
  input: "device_dummy_0/Initializer/random_uniform/min"
  attr {
    key: "T"
    value {
      type: DT_FLOAT
    }
  }
  attr {
    key: "_class"
    value {
      list {
        s: "loc:@device_dummy_0"
      }
    }
  }
  attr {
    key: "_output_shapes"
    value {
      list {
        shape {
        }
      }
    }
  }
}
node {
  name: "device_dummy_0/Initializer/random_uniform/mul"
  op: "Mul"
  input: "device_dummy_0/Initializer/random_uniform/RandomUniform"
  input: "device_dummy_0/Initializer/random_uniform/sub"
  attr {
    key: "T"
    value {
      type: DT_FLOAT
    }
  }
  attr {
    key: "_class"
    value {
      list {
        s: "loc:@device_dummy_0"
      }
    }
  }
  attr {
    key: "_output_shapes"
    value {
      list {
        shape {
          dim {
          }
        }
      }
    }
  }
}
node {
  name: "device_dummy_0/Initializer/random_uniform"
  op: "Add"
  input: "device_dummy_0/Initializer/random_uniform/mul"
  input: "device_dummy_0/Initializer/random_uniform/min"
  attr {
    key: "T"
    value {
      type: DT_FLOAT
    }
  }
  attr {
    key: "_class"
    value {
      list {
        s: "loc:@device_dummy_0"
      }
    }
  }
  attr {
    key: "_output_shapes"
    value {
      list {
        shape {
          dim {
          }
        }
      }
    }
  }
}
node {
  name: "device_dummy_0"
  op: "VariableV2"
  device: "/device:CPU:0"
  attr {
    key: "_class"
    value {
      list {
        s: "loc:@device_dummy_0"
      }
    }
  }
  attr {
    key: "_output_shapes"
    value {
      list {
        shape {
          dim {
          }
        }
      }
    }
  }
  attr {
    key: "container"
    value {
      s: ""
    }
  }
  attr {
    key: "dtype"
    value {
      type: DT_FLOAT
    }
  }
  attr {
    key: "shape"
    value {
      shape {
        dim {
        }
      }
    }
  }
  attr {
    key: "shared_name"
    value {
      s: ""
    }
  }
}
node {
  name: "device_dummy_0/Assign"
  op: "Assign"
  input: "device_dummy_0"
  input: "device_dummy_0/Initializer/random_uniform"
  device: "/device:CPU:0"
  attr {
    key: "T"
    value {
      type: DT_FLOAT
    }
  }
  attr {
    key: "_class"
    value {
      list {
        s: "loc:@device_dummy_0"
      }
    }
  }
  attr {
    key: "_output_shapes"
    value {
      list {
        shape {
          dim {
          }
        }
      }
    }
  }
  attr {
    key: "use_locking"
    value {
      b: true
    }
  }
  attr {
    key: "validate_shape"
    value {
      b: true
    }
  }
}
node {
  name: "device_dummy_0/read"
  op: "Identity"
  input: "device_dummy_0"
  device: "/device:CPU:0"
  attr {
    key: "T"
    value {
      type: DT_FLOAT
    }
  }
  attr {
    key: "_class"
    value {
      list {
        s: "loc:@device_dummy_0"
      }
    }
  }
  attr {
    key: "_output_shapes"
    value {
      list {
        shape {
          dim {
          }
        }
      }
    }
  }
}
node {
  name: "device_dummy_1/Initializer/random_uniform/shape"
  op: "Const"
  attr {
    key: "_class"
    value {
      list {
        s: "loc:@device_dummy_1"
      }
    }
  }
  attr {
    key: "_output_shapes"
    value {
      list {
        shape {
          dim {
            size: 1
          }
        }
      }
    }
  }
  attr {
    key: "dtype"
    value {
      type: DT_INT32
    }
  }
  attr {
    key: "value"
    value {
      tensor {
        dtype: DT_INT32
        tensor_shape {
          dim {
            size: 1
          }
        }
        int_val: 0
      }
    }
  }
}
node {
  name: "device_dummy_1/Initializer/random_uniform/min"
  op: "Const"
  attr {
    key: "_class"
    value {
      list {
        s: "loc:@device_dummy_1"
      }
    }
  }
  attr {
    key: "_output_shapes"
    value {
      list {
        shape {
        }
      }
    }
  }
  attr {
    key: "dtype"
    value {
      type: DT_FLOAT
    }
  }
  attr {
    key: "value"
    value {
      tensor {
        dtype: DT_FLOAT
        tensor_shape {
        }
        float_val: -1.7320507764816284
      }
    }
  }
}
node {
  name: "device_dummy_1/Initializer/random_uniform/max"
  op: "Const"
  attr {
    key: "_class"
    value {
      list {
        s: "loc:@device_dummy_1"
      }
    }
  }
  attr {
    key: "_output_shapes"
    value {
      list {
        shape {
        }
      }
    }
  }
  attr {
    key: "dtype"
    value {
      type: DT_FLOAT
    }
  }
  attr {
    key: "value"
    value {
      tensor {
        dtype: DT_FLOAT
        tensor_shape {
        }
        float_val: 1.7320507764816284
      }
    }
  }
}
node {
  name: "device_dummy_1/Initializer/random_uniform/RandomUniform"
  op: "RandomUniform"
  input: "device_dummy_1/Initializer/random_uniform/shape"
  attr {
    key: "T"
    value {
      type: DT_INT32
    }
  }
  attr {
    key: "_class"
    value {
      list {
        s: "loc:@device_dummy_1"
      }
    }
  }
  attr {
    key: "_output_shapes"
    value {
      list {
        shape {
          dim {
          }
        }
      }
    }
  }
  attr {
    key: "dtype"
    value {
      type: DT_FLOAT
    }
  }
  attr {
    key: "seed"
    value {
      i: 0
    }
  }
  attr {
    key: "seed2"
    value {
      i: 0
    }
  }
}
node {
  name: "device_dummy_1/Initializer/random_uniform/sub"
  op: "Sub"
  input: "device_dummy_1/Initializer/random_uniform/max"
  input: "device_dummy_1/Initializer/random_uniform/min"
  attr {
    key: "T"
    value {
      type: DT_FLOAT
    }
  }
  attr {
    key: "_class"
    value {
      list {
        s: "loc:@device_dummy_1"
      }
    }
  }
  attr {
    key: "_output_shapes"
    value {
      list {
        shape {
        }
      }
    }
  }
}
node {
  name: "device_dummy_1/Initializer/random_uniform/mul"
  op: "Mul"
  input: "device_dummy_1/Initializer/random_uniform/RandomUniform"
  input: "device_dummy_1/Initializer/random_uniform/sub"
  attr {
    key: "T"
    value {
      type: DT_FLOAT
    }
  }
  attr {
    key: "_class"
    value {
      list {
        s: "loc:@device_dummy_1"
      }
    }
  }
  attr {
    key: "_output_shapes"
    value {
      list {
        shape {
          dim {
          }
        }
      }
    }
  }
}
node {
  name: "device_dummy_1/Initializer/random_uniform"
  op: "Add"
  input: "device_dummy_1/Initializer/random_uniform/mul"
  input: "device_dummy_1/Initializer/random_uniform/min"
  attr {
    key: "T"
    value {
      type: DT_FLOAT
    }
  }
  attr {
    key: "_class"
    value {
      list {
        s: "loc:@device_dummy_1"
      }
    }
  }
  attr {
    key: "_output_shapes"
    value {
      list {
        shape {
          dim {
          }
        }
      }
    }
  }
}
node {
  name: "device_dummy_1"
  op: "VariableV2"
  device: "/device:CPU:0"
  attr {
    key: "_class"
    value {
      list {
        s: "loc:@device_dummy_1"
      }
    }
  }
  attr {
    key: "_output_shapes"
    value {
      list {
        shape {
          dim {
          }
        }
      }
    }
  }
  attr {
    key: "container"
    value {
      s: ""
    }
  }
  attr {
    key: "dtype"
    value {
      type: DT_FLOAT
    }
  }
  attr {
    key: "shape"
    value {
      shape {
        dim {
        }
      }
    }
  }
  attr {
    key: "shared_name"
    value {
      s: ""
    }
  }
}
node {
  name: "device_dummy_1/Assign"
  op: "Assign"
  input: "device_dummy_1"
  input: "device_dummy_1/Initializer/random_uniform"
  device: "/device:CPU:0"
  attr {
    key: "T"
    value {
      type: DT_FLOAT
    }
  }
  attr {
    key: "_class"
    value {
      list {
        s: "loc:@device_dummy_1"
      }
    }
  }
  attr {
    key: "_output_shapes"
    value {
      list {
        shape {
          dim {
          }
        }
      }
    }
  }
  attr {
    key: "use_locking"
    value {
      b: true
    }
  }
  attr {
    key: "validate_shape"
    value {
      b: true
    }
  }
}
node {
  name: "device_dummy_1/read"
  op: "Identity"
  input: "device_dummy_1"
  device: "/device:CPU:0"
  attr {
    key: "T"
    value {
      type: DT_FLOAT
    }
  }
  attr {
    key: "_class"
    value {
      list {
        s: "loc:@device_dummy_1"
      }
    }
  }
  attr {
    key: "_output_shapes"
    value {
      list {
        shape {
          dim {
          }
        }
      }
    }
  }
}
node {
  name: "device_dummy_2/Initializer/random_uniform/shape"
  op: "Const"
  attr {
    key: "_class"
    value {
      list {
        s: "loc:@device_dummy_2"
      }
    }
  }
  attr {
    key: "_output_shapes"
    value {
      list {
        shape {
          dim {
            size: 1
          }
        }
      }
    }
  }
  attr {
    key: "dtype"
    value {
      type: DT_INT32
    }
  }
  attr {
    key: "value"
    value {
      tensor {
        dtype: DT_INT32
        tensor_shape {
          dim {
            size: 1
          }
        }
        int_val: 0
      }
    }
  }
}
node {
  name: "device_dummy_2/Initializer/random_uniform/min"
  op: "Const"
  attr {
    key: "_class"
    value {
      list {
        s: "loc:@device_dummy_2"
      }
    }
  }
  attr {
    key: "_output_shapes"
    value {
      list {
        shape {
        }
      }
    }
  }
  attr {
    key: "dtype"
    value {
      type: DT_FLOAT
    }
  }
  attr {
    key: "value"
    value {
      tensor {
        dtype: DT_FLOAT
        tensor_shape {
        }
        float_val: -1.7320507764816284
      }
    }
  }
}
node {
  name: "device_dummy_2/Initializer/random_uniform/max"
  op: "Const"
  attr {
    key: "_class"
    value {
      list {
        s: "loc:@device_dummy_2"
      }
    }
  }
  attr {
    key: "_output_shapes"
    value {
      list {
        shape {
        }
      }
    }
  }
  attr {
    key: "dtype"
    value {
      type: DT_FLOAT
    }
  }
  attr {
    key: "value"
    value {
      tensor {
        dtype: DT_FLOAT
        tensor_shape {
        }
        float_val: 1.7320507764816284
      }
    }
  }
}
node {
  name: "device_dummy_2/Initializer/random_uniform/RandomUniform"
  op: "RandomUniform"
  input: "device_dummy_2/Initializer/random_uniform/shape"
  attr {
    key: "T"
    value {
      type: DT_INT32
    }
  }
  attr {
    key: "_class"
    value {
      list {
        s: "loc:@device_dummy_2"
      }
    }
  }
  attr {
    key: "_output_shapes"
    value {
      list {
        shape {
          dim {
          }
        }
      }
    }
  }
  attr {
    key: "dtype"
    value {
      type: DT_FLOAT
    }
  }
  attr {
    key: "seed"
    value {
      i: 0
    }
  }
  attr {
    key: "seed2"
    value {
      i: 0
    }
  }
}
node {
  name: "device_dummy_2/Initializer/random_uniform/sub"
  op: "Sub"
  input: "device_dummy_2/Initializer/random_uniform/max"
  input: "device_dummy_2/Initializer/random_uniform/min"
  attr {
    key: "T"
    value {
      type: DT_FLOAT
    }
  }
  attr {
    key: "_class"
    value {
      list {
        s: "loc:@device_dummy_2"
      }
    }
  }
  attr {
    key: "_output_shapes"
    value {
      list {
        shape {
        }
      }
    }
  }
}
node {
  name: "device_dummy_2/Initializer/random_uniform/mul"
  op: "Mul"
  input: "device_dummy_2/Initializer/random_uniform/RandomUniform"
  input: "device_dummy_2/Initializer/random_uniform/sub"
  attr {
    key: "T"
    value {
      type: DT_FLOAT
    }
  }
  attr {
    key: "_class"
    value {
      list {
        s: "loc:@device_dummy_2"
      }
    }
  }
  attr {
    key: "_output_shapes"
    value {
      list {
        shape {
          dim {
          }
        }
      }
    }
  }
}
node {
  name: "device_dummy_2/Initializer/random_uniform"
  op: "Add"
  input: "device_dummy_2/Initializer/random_uniform/mul"
  input: "device_dummy_2/Initializer/random_uniform/min"
  attr {
    key: "T"
    value {
      type: DT_FLOAT
    }
  }
  attr {
    key: "_class"
    value {
      list {
        s: "loc:@device_dummy_2"
      }
    }
  }
  attr {
    key: "_output_shapes"
    value {
      list {
        shape {
          dim {
          }
        }
      }
    }
  }
}
node {
  name: "device_dummy_2"
  op: "VariableV2"
  device: "/device:CPU:0"
  attr {
    key: "_class"
    value {
      list {
        s: "loc:@device_dummy_2"
      }
    }
  }
  attr {
    key: "_output_shapes"
    value {
      list {
        shape {
          dim {
          }
        }
      }
    }
  }
  attr {
    key: "container"
    value {
      s: ""
    }
  }
  attr {
    key: "dtype"
    value {
      type: DT_FLOAT
    }
  }
  attr {
    key: "shape"
    value {
      shape {
        dim {
        }
      }
    }
  }
  attr {
    key: "shared_name"
    value {
      s: ""
    }
  }
}
node {
  name: "device_dummy_2/Assign"
  op: "Assign"
  input: "device_dummy_2"
  input: "device_dummy_2/Initializer/random_uniform"
  device: "/device:CPU:0"
  attr {
    key: "T"
    value {
      type: DT_FLOAT
    }
  }
  attr {
    key: "_class"
    value {
      list {
        s: "loc:@device_dummy_2"
      }
    }
  }
  attr {
    key: "_output_shapes"
    value {
      list {
        shape {
          dim {
          }
        }
      }
    }
  }
  attr {
    key: "use_locking"
    value {
      b: true
    }
  }
  attr {
    key: "validate_shape"
    value {
      b: true
    }
  }
}
node {
  name: "device_dummy_2/read"
  op: "Identity"
  input: "device_dummy_2"
  device: "/device:CPU:0"
  attr {
    key: "T"
    value {
      type: DT_FLOAT
    }
  }
  attr {
    key: "_class"
    value {
      list {
        s: "loc:@device_dummy_2"
      }
    }
  }
  attr {
    key: "_output_shapes"
    value {
      list {
        shape {
          dim {
          }
        }
      }
    }
  }
}
node {
  name: "device_dummy_3/Initializer/random_uniform/shape"
  op: "Const"
  attr {
    key: "_class"
    value {
      list {
        s: "loc:@device_dummy_3"
      }
    }
  }
  attr {
    key: "_output_shapes"
    value {
      list {
        shape {
          dim {
            size: 1
          }
        }
      }
    }
  }
  attr {
    key: "dtype"
    value {
      type: DT_INT32
    }
  }
  attr {
    key: "value"
    value {
      tensor {
        dtype: DT_INT32
        tensor_shape {
          dim {
            size: 1
          }
        }
        int_val: 0
      }
    }
  }
}
node {
  name: "device_dummy_3/Initializer/random_uniform/min"
  op: "Const"
  attr {
    key: "_class"
    value {
      list {
        s: "loc:@device_dummy_3"
      }
    }
  }
  attr {
    key: "_output_shapes"
    value {
      list {
        shape {
        }
      }
    }
  }
  attr {
    key: "dtype"
    value {
      type: DT_FLOAT
    }
  }
  attr {
    key: "value"
    value {
      tensor {
        dtype: DT_FLOAT
        tensor_shape {
        }
        float_val: -1.7320507764816284
      }
    }
  }
}
node {
  name: "device_dummy_3/Initializer/random_uniform/max"
  op: "Const"
  attr {
    key: "_class"
    value {
      list {
        s: "loc:@device_dummy_3"
      }
    }
  }
  attr {
    key: "_output_shapes"
    value {
      list {
        shape {
        }
      }
    }
  }
  attr {
    key: "dtype"
    value {
      type: DT_FLOAT
    }
  }
  attr {
    key: "value"
    value {
      tensor {
        dtype: DT_FLOAT
        tensor_shape {
        }
        float_val: 1.7320507764816284
      }
    }
  }
}
node {
  name: "device_dummy_3/Initializer/random_uniform/RandomUniform"
  op: "RandomUniform"
  input: "device_dummy_3/Initializer/random_uniform/shape"
  attr {
    key: "T"
    value {
      type: DT_INT32
    }
  }
  attr {
    key: "_class"
    value {
      list {
        s: "loc:@device_dummy_3"
      }
    }
  }
  attr {
    key: "_output_shapes"
    value {
      list {
        shape {
          dim {
          }
        }
      }
    }
  }
  attr {
    key: "dtype"
    value {
      type: DT_FLOAT
    }
  }
  attr {
    key: "seed"
    value {
      i: 0
    }
  }
  attr {
    key: "seed2"
    value {
      i: 0
    }
  }
}
node {
  name: "device_dummy_3/Initializer/random_uniform/sub"
  op: "Sub"
  input: "device_dummy_3/Initializer/random_uniform/max"
  input: "device_dummy_3/Initializer/random_uniform/min"
  attr {
    key: "T"
    value {
      type: DT_FLOAT
    }
  }
  attr {
    key: "_class"
    value {
      list {
        s: "loc:@device_dummy_3"
      }
    }
  }
  attr {
    key: "_output_shapes"
    value {
      list {
        shape {
        }
      }
    }
  }
}
node {
  name: "device_dummy_3/Initializer/random_uniform/mul"
  op: "Mul"
  input: "device_dummy_3/Initializer/random_uniform/RandomUniform"
  input: "device_dummy_3/Initializer/random_uniform/sub"
  attr {
    key: "T"
    value {
      type: DT_FLOAT
    }
  }
  attr {
    key: "_class"
    value {
      list {
        s: "loc:@device_dummy_3"
      }
    }
  }
  attr {
    key: "_output_shapes"
    value {
      list {
        shape {
          dim {
          }
        }
      }
    }
  }
}
node {
  name: "device_dummy_3/Initializer/random_uniform"
  op: "Add"
  input: "device_dummy_3/Initializer/random_uniform/mul"
  input: "device_dummy_3/Initializer/random_uniform/min"
  attr {
    key: "T"
    value {
      type: DT_FLOAT
    }
  }
  attr {
    key: "_class"
    value {
      list {
        s: "loc:@device_dummy_3"
      }
    }
  }
  attr {
    key: "_output_shapes"
    value {
      list {
        shape {
          dim {
          }
        }
      }
    }
  }
}
node {
  name: "device_dummy_3"
  op: "VariableV2"
  device: "/device:CPU:0"
  attr {
    key: "_class"
    value {
      list {
        s: "loc:@device_dummy_3"
      }
    }
  }
  attr {
    key: "_output_shapes"
    value {
      list {
        shape {
          dim {
          }
        }
      }
    }
  }
  attr {
    key: "container"
    value {
      s: ""
    }
  }
  attr {
    key: "dtype"
    value {
      type: DT_FLOAT
    }
  }
  attr {
    key: "shape"
    value {
      shape {
        dim {
        }
      }
    }
  }
  attr {
    key: "shared_name"
    value {
      s: ""
    }
  }
}
node {
  name: "device_dummy_3/Assign"
  op: "Assign"
  input: "device_dummy_3"
  input: "device_dummy_3/Initializer/random_uniform"
  device: "/device:CPU:0"
  attr {
    key: "T"
    value {
      type: DT_FLOAT
    }
  }
  attr {
    key: "_class"
    value {
      list {
        s: "loc:@device_dummy_3"
      }
    }
  }
  attr {
    key: "_output_shapes"
    value {
      list {
        shape {
          dim {
          }
        }
      }
    }
  }
  attr {
    key: "use_locking"
    value {
      b: true
    }
  }
  attr {
    key: "validate_shape"
    value {
      b: true
    }
  }
}
node {
  name: "device_dummy_3/read"
  op: "Identity"
  input: "device_dummy_3"
  device: "/device:CPU:0"
  attr {
    key: "T"
    value {
      type: DT_FLOAT
    }
  }
  attr {
    key: "_class"
    value {
      list {
        s: "loc:@device_dummy_3"
      }
    }
  }
  attr {
    key: "_output_shapes"
    value {
      list {
        shape {
          dim {
          }
        }
      }
    }
  }
}
node {
  name: "device_dummy_4/Initializer/random_uniform/shape"
  op: "Const"
  attr {
    key: "_class"
    value {
      list {
        s: "loc:@device_dummy_4"
      }
    }
  }
  attr {
    key: "_output_shapes"
    value {
      list {
        shape {
          dim {
            size: 1
          }
        }
      }
    }
  }
  attr {
    key: "dtype"
    value {
      type: DT_INT32
    }
  }
  attr {
    key: "value"
    value {
      tensor {
        dtype: DT_INT32
        tensor_shape {
          dim {
            size: 1
          }
        }
        int_val: 0
      }
    }
  }
}
node {
  name: "device_dummy_4/Initializer/random_uniform/min"
  op: "Const"
  attr {
    key: "_class"
    value {
      list {
        s: "loc:@device_dummy_4"
      }
    }
  }
  attr {
    key: "_output_shapes"
    value {
      list {
        shape {
        }
      }
    }
  }
  attr {
    key: "dtype"
    value {
      type: DT_FLOAT
    }
  }
  attr {
    key: "value"
    value {
      tensor {
        dtype: DT_FLOAT
        tensor_shape {
        }
        float_val: -1.7320507764816284
      }
    }
  }
}
node {
  name: "device_dummy_4/Initializer/random_uniform/max"
  op: "Const"
  attr {
    key: "_class"
    value {
      list {
        s: "loc:@device_dummy_4"
      }
    }
  }
  attr {
    key: "_output_shapes"
    value {
      list {
        shape {
        }
      }
    }
  }
  attr {
    key: "dtype"
    value {
      type: DT_FLOAT
    }
  }
  attr {
    key: "value"
    value {
      tensor {
        dtype: DT_FLOAT
        tensor_shape {
        }
        float_val: 1.7320507764816284
      }
    }
  }
}
node {
  name: "device_dummy_4/Initializer/random_uniform/RandomUniform"
  op: "RandomUniform"
  input: "device_dummy_4/Initializer/random_uniform/shape"
  attr {
    key: "T"
    value {
      type: DT_INT32
    }
  }
  attr {
    key: "_class"
    value {
      list {
        s: "loc:@device_dummy_4"
      }
    }
  }
  attr {
    key: "_output_shapes"
    value {
      list {
        shape {
          dim {
          }
        }
      }
    }
  }
  attr {
    key: "dtype"
    value {
      type: DT_FLOAT
    }
  }
  attr {
    key: "seed"
    value {
      i: 0
    }
  }
  attr {
    key: "seed2"
    value {
      i: 0
    }
  }
}
node {
  name: "device_dummy_4/Initializer/random_uniform/sub"
  op: "Sub"
  input: "device_dummy_4/Initializer/random_uniform/max"
  input: "device_dummy_4/Initializer/random_uniform/min"
  attr {
    key: "T"
    value {
      type: DT_FLOAT
    }
  }
  attr {
    key: "_class"
    value {
      list {
        s: "loc:@device_dummy_4"
      }
    }
  }
  attr {
    key: "_output_shapes"
    value {
      list {
        shape {
        }
      }
    }
  }
}
node {
  name: "device_dummy_4/Initializer/random_uniform/mul"
  op: "Mul"
  input: "device_dummy_4/Initializer/random_uniform/RandomUniform"
  input: "device_dummy_4/Initializer/random_uniform/sub"
  attr {
    key: "T"
    value {
      type: DT_FLOAT
    }
  }
  attr {
    key: "_class"
    value {
      list {
        s: "loc:@device_dummy_4"
      }
    }
  }
  attr {
    key: "_output_shapes"
    value {
      list {
        shape {
          dim {
          }
        }
      }
    }
  }
}
node {
  name: "device_dummy_4/Initializer/random_uniform"
  op: "Add"
  input: "device_dummy_4/Initializer/random_uniform/mul"
  input: "device_dummy_4/Initializer/random_uniform/min"
  attr {
    key: "T"
    value {
      type: DT_FLOAT
    }
  }
  attr {
    key: "_class"
    value {
      list {
        s: "loc:@device_dummy_4"
      }
    }
  }
  attr {
    key: "_output_shapes"
    value {
      list {
        shape {
          dim {
          }
        }
      }
    }
  }
}
node {
  name: "device_dummy_4"
  op: "VariableV2"
  device: "/device:CPU:0"
  attr {
    key: "_class"
    value {
      list {
        s: "loc:@device_dummy_4"
      }
    }
  }
  attr {
    key: "_output_shapes"
    value {
      list {
        shape {
          dim {
          }
        }
      }
    }
  }
  attr {
    key: "container"
    value {
      s: ""
    }
  }
  attr {
    key: "dtype"
    value {
      type: DT_FLOAT
    }
  }
  attr {
    key: "shape"
    value {
      shape {
        dim {
        }
      }
    }
  }
  attr {
    key: "shared_name"
    value {
      s: ""
    }
  }
}
node {
  name: "device_dummy_4/Assign"
  op: "Assign"
  input: "device_dummy_4"
  input: "device_dummy_4/Initializer/random_uniform"
  device: "/device:CPU:0"
  attr {
    key: "T"
    value {
      type: DT_FLOAT
    }
  }
  attr {
    key: "_class"
    value {
      list {
        s: "loc:@device_dummy_4"
      }
    }
  }
  attr {
    key: "_output_shapes"
    value {
      list {
        shape {
          dim {
          }
        }
      }
    }
  }
  attr {
    key: "use_locking"
    value {
      b: true
    }
  }
  attr {
    key: "validate_shape"
    value {
      b: true
    }
  }
}
node {
  name: "device_dummy_4/read"
  op: "Identity"
  input: "device_dummy_4"
  device: "/device:CPU:0"
  attr {
    key: "T"
    value {
      type: DT_FLOAT
    }
  }
  attr {
    key: "_class"
    value {
      list {
        s: "loc:@device_dummy_4"
      }
    }
  }
  attr {
    key: "_output_shapes"
    value {
      list {
        shape {
          dim {
          }
        }
      }
    }
  }
}
node {
  name: "device_dummy_5/Initializer/random_uniform/shape"
  op: "Const"
  attr {
    key: "_class"
    value {
      list {
        s: "loc:@device_dummy_5"
      }
    }
  }
  attr {
    key: "_output_shapes"
    value {
      list {
        shape {
          dim {
            size: 1
          }
        }
      }
    }
  }
  attr {
    key: "dtype"
    value {
      type: DT_INT32
    }
  }
  attr {
    key: "value"
    value {
      tensor {
        dtype: DT_INT32
        tensor_shape {
          dim {
            size: 1
          }
        }
        int_val: 0
      }
    }
  }
}
node {
  name: "device_dummy_5/Initializer/random_uniform/min"
  op: "Const"
  attr {
    key: "_class"
    value {
      list {
        s: "loc:@device_dummy_5"
      }
    }
  }
  attr {
    key: "_output_shapes"
    value {
      list {
        shape {
        }
      }
    }
  }
  attr {
    key: "dtype"
    value {
      type: DT_FLOAT
    }
  }
  attr {
    key: "value"
    value {
      tensor {
        dtype: DT_FLOAT
        tensor_shape {
        }
        float_val: -1.7320507764816284
      }
    }
  }
}
node {
  name: "device_dummy_5/Initializer/random_uniform/max"
  op: "Const"
  attr {
    key: "_class"
    value {
      list {
        s: "loc:@device_dummy_5"
      }
    }
  }
  attr {
    key: "_output_shapes"
    value {
      list {
        shape {
        }
      }
    }
  }
  attr {
    key: "dtype"
    value {
      type: DT_FLOAT
    }
  }
  attr {
    key: "value"
    value {
      tensor {
        dtype: DT_FLOAT
        tensor_shape {
        }
        float_val: 1.7320507764816284
      }
    }
  }
}
node {
  name: "device_dummy_5/Initializer/random_uniform/RandomUniform"
  op: "RandomUniform"
  input: "device_dummy_5/Initializer/random_uniform/shape"
  attr {
    key: "T"
    value {
      type: DT_INT32
    }
  }
  attr {
    key: "_class"
    value {
      list {
        s: "loc:@device_dummy_5"
      }
    }
  }
  attr {
    key: "_output_shapes"
    value {
      list {
        shape {
          dim {
          }
        }
      }
    }
  }
  attr {
    key: "dtype"
    value {
      type: DT_FLOAT
    }
  }
  attr {
    key: "seed"
    value {
      i: 0
    }
  }
  attr {
    key: "seed2"
    value {
      i: 0
    }
  }
}
node {
  name: "device_dummy_5/Initializer/random_uniform/sub"
  op: "Sub"
  input: "device_dummy_5/Initializer/random_uniform/max"
  input: "device_dummy_5/Initializer/random_uniform/min"
  attr {
    key: "T"
    value {
      type: DT_FLOAT
    }
  }
  attr {
    key: "_class"
    value {
      list {
        s: "loc:@device_dummy_5"
      }
    }
  }
  attr {
    key: "_output_shapes"
    value {
      list {
        shape {
        }
      }
    }
  }
}
node {
  name: "device_dummy_5/Initializer/random_uniform/mul"
  op: "Mul"
  input: "device_dummy_5/Initializer/random_uniform/RandomUniform"
  input: "device_dummy_5/Initializer/random_uniform/sub"
  attr {
    key: "T"
    value {
      type: DT_FLOAT
    }
  }
  attr {
    key: "_class"
    value {
      list {
        s: "loc:@device_dummy_5"
      }
    }
  }
  attr {
    key: "_output_shapes"
    value {
      list {
        shape {
          dim {
          }
        }
      }
    }
  }
}
node {
  name: "device_dummy_5/Initializer/random_uniform"
  op: "Add"
  input: "device_dummy_5/Initializer/random_uniform/mul"
  input: "device_dummy_5/Initializer/random_uniform/min"
  attr {
    key: "T"
    value {
      type: DT_FLOAT
    }
  }
  attr {
    key: "_class"
    value {
      list {
        s: "loc:@device_dummy_5"
      }
    }
  }
  attr {
    key: "_output_shapes"
    value {
      list {
        shape {
          dim {
          }
        }
      }
    }
  }
}
node {
  name: "device_dummy_5"
  op: "VariableV2"
  device: "/device:CPU:0"
  attr {
    key: "_class"
    value {
      list {
        s: "loc:@device_dummy_5"
      }
    }
  }
  attr {
    key: "_output_shapes"
    value {
      list {
        shape {
          dim {
          }
        }
      }
    }
  }
  attr {
    key: "container"
    value {
      s: ""
    }
  }
  attr {
    key: "dtype"
    value {
      type: DT_FLOAT
    }
  }
  attr {
    key: "shape"
    value {
      shape {
        dim {
        }
      }
    }
  }
  attr {
    key: "shared_name"
    value {
      s: ""
    }
  }
}
node {
  name: "device_dummy_5/Assign"
  op: "Assign"
  input: "device_dummy_5"
  input: "device_dummy_5/Initializer/random_uniform"
  device: "/device:CPU:0"
  attr {
    key: "T"
    value {
      type: DT_FLOAT
    }
  }
  attr {
    key: "_class"
    value {
      list {
        s: "loc:@device_dummy_5"
      }
    }
  }
  attr {
    key: "_output_shapes"
    value {
      list {
        shape {
          dim {
          }
        }
      }
    }
  }
  attr {
    key: "use_locking"
    value {
      b: true
    }
  }
  attr {
    key: "validate_shape"
    value {
      b: true
    }
  }
}
node {
  name: "device_dummy_5/read"
  op: "Identity"
  input: "device_dummy_5"
  device: "/device:CPU:0"
  attr {
    key: "T"
    value {
      type: DT_FLOAT
    }
  }
  attr {
    key: "_class"
    value {
      list {
        s: "loc:@device_dummy_5"
      }
    }
  }
  attr {
    key: "_output_shapes"
    value {
      list {
        shape {
          dim {
          }
        }
      }
    }
  }
}
node {
  name: "device_dummy_6/Initializer/random_uniform/shape"
  op: "Const"
  attr {
    key: "_class"
    value {
      list {
        s: "loc:@device_dummy_6"
      }
    }
  }
  attr {
    key: "_output_shapes"
    value {
      list {
        shape {
          dim {
            size: 1
          }
        }
      }
    }
  }
  attr {
    key: "dtype"
    value {
      type: DT_INT32
    }
  }
  attr {
    key: "value"
    value {
      tensor {
        dtype: DT_INT32
        tensor_shape {
          dim {
            size: 1
          }
        }
        int_val: 0
      }
    }
  }
}
node {
  name: "device_dummy_6/Initializer/random_uniform/min"
  op: "Const"
  attr {
    key: "_class"
    value {
      list {
        s: "loc:@device_dummy_6"
      }
    }
  }
  attr {
    key: "_output_shapes"
    value {
      list {
        shape {
        }
      }
    }
  }
  attr {
    key: "dtype"
    value {
      type: DT_FLOAT
    }
  }
  attr {
    key: "value"
    value {
      tensor {
        dtype: DT_FLOAT
        tensor_shape {
        }
        float_val: -1.7320507764816284
      }
    }
  }
}
node {
  name: "device_dummy_6/Initializer/random_uniform/max"
  op: "Const"
  attr {
    key: "_class"
    value {
      list {
        s: "loc:@device_dummy_6"
      }
    }
  }
  attr {
    key: "_output_shapes"
    value {
      list {
        shape {
        }
      }
    }
  }
  attr {
    key: "dtype"
    value {
      type: DT_FLOAT
    }
  }
  attr {
    key: "value"
    value {
      tensor {
        dtype: DT_FLOAT
        tensor_shape {
        }
        float_val: 1.7320507764816284
      }
    }
  }
}
node {
  name: "device_dummy_6/Initializer/random_uniform/RandomUniform"
  op: "RandomUniform"
  input: "device_dummy_6/Initializer/random_uniform/shape"
  attr {
    key: "T"
    value {
      type: DT_INT32
    }
  }
  attr {
    key: "_class"
    value {
      list {
        s: "loc:@device_dummy_6"
      }
    }
  }
  attr {
    key: "_output_shapes"
    value {
      list {
        shape {
          dim {
          }
        }
      }
    }
  }
  attr {
    key: "dtype"
    value {
      type: DT_FLOAT
    }
  }
  attr {
    key: "seed"
    value {
      i: 0
    }
  }
  attr {
    key: "seed2"
    value {
      i: 0
    }
  }
}
node {
  name: "device_dummy_6/Initializer/random_uniform/sub"
  op: "Sub"
  input: "device_dummy_6/Initializer/random_uniform/max"
  input: "device_dummy_6/Initializer/random_uniform/min"
  attr {
    key: "T"
    value {
      type: DT_FLOAT
    }
  }
  attr {
    key: "_class"
    value {
      list {
        s: "loc:@device_dummy_6"
      }
    }
  }
  attr {
    key: "_output_shapes"
    value {
      list {
        shape {
        }
      }
    }
  }
}
node {
  name: "device_dummy_6/Initializer/random_uniform/mul"
  op: "Mul"
  input: "device_dummy_6/Initializer/random_uniform/RandomUniform"
  input: "device_dummy_6/Initializer/random_uniform/sub"
  attr {
    key: "T"
    value {
      type: DT_FLOAT
    }
  }
  attr {
    key: "_class"
    value {
      list {
        s: "loc:@device_dummy_6"
      }
    }
  }
  attr {
    key: "_output_shapes"
    value {
      list {
        shape {
          dim {
          }
        }
      }
    }
  }
}
node {
  name: "device_dummy_6/Initializer/random_uniform"
  op: "Add"
  input: "device_dummy_6/Initializer/random_uniform/mul"
  input: "device_dummy_6/Initializer/random_uniform/min"
  attr {
    key: "T"
    value {
      type: DT_FLOAT
    }
  }
  attr {
    key: "_class"
    value {
      list {
        s: "loc:@device_dummy_6"
      }
    }
  }
  attr {
    key: "_output_shapes"
    value {
      list {
        shape {
          dim {
          }
        }
      }
    }
  }
}
node {
  name: "device_dummy_6"
  op: "VariableV2"
  device: "/device:CPU:0"
  attr {
    key: "_class"
    value {
      list {
        s: "loc:@device_dummy_6"
      }
    }
  }
  attr {
    key: "_output_shapes"
    value {
      list {
        shape {
          dim {
          }
        }
      }
    }
  }
  attr {
    key: "container"
    value {
      s: ""
    }
  }
  attr {
    key: "dtype"
    value {
      type: DT_FLOAT
    }
  }
  attr {
    key: "shape"
    value {
      shape {
        dim {
        }
      }
    }
  }
  attr {
    key: "shared_name"
    value {
      s: ""
    }
  }
}
node {
  name: "device_dummy_6/Assign"
  op: "Assign"
  input: "device_dummy_6"
  input: "device_dummy_6/Initializer/random_uniform"
  device: "/device:CPU:0"
  attr {
    key: "T"
    value {
      type: DT_FLOAT
    }
  }
  attr {
    key: "_class"
    value {
      list {
        s: "loc:@device_dummy_6"
      }
    }
  }
  attr {
    key: "_output_shapes"
    value {
      list {
        shape {
          dim {
          }
        }
      }
    }
  }
  attr {
    key: "use_locking"
    value {
      b: true
    }
  }
  attr {
    key: "validate_shape"
    value {
      b: true
    }
  }
}
node {
  name: "device_dummy_6/read"
  op: "Identity"
  input: "device_dummy_6"
  device: "/device:CPU:0"
  attr {
    key: "T"
    value {
      type: DT_FLOAT
    }
  }
  attr {
    key: "_class"
    value {
      list {
        s: "loc:@device_dummy_6"
      }
    }
  }
  attr {
    key: "_output_shapes"
    value {
      list {
        shape {
          dim {
          }
        }
      }
    }
  }
}
node {
  name: "device_dummy_7/Initializer/random_uniform/shape"
  op: "Const"
  attr {
    key: "_class"
    value {
      list {
        s: "loc:@device_dummy_7"
      }
    }
  }
  attr {
    key: "_output_shapes"
    value {
      list {
        shape {
          dim {
            size: 1
          }
        }
      }
    }
  }
  attr {
    key: "dtype"
    value {
      type: DT_INT32
    }
  }
  attr {
    key: "value"
    value {
      tensor {
        dtype: DT_INT32
        tensor_shape {
          dim {
            size: 1
          }
        }
        int_val: 0
      }
    }
  }
}
node {
  name: "device_dummy_7/Initializer/random_uniform/min"
  op: "Const"
  attr {
    key: "_class"
    value {
      list {
        s: "loc:@device_dummy_7"
      }
    }
  }
  attr {
    key: "_output_shapes"
    value {
      list {
        shape {
        }
      }
    }
  }
  attr {
    key: "dtype"
    value {
      type: DT_FLOAT
    }
  }
  attr {
    key: "value"
    value {
      tensor {
        dtype: DT_FLOAT
        tensor_shape {
        }
        float_val: -1.7320507764816284
      }
    }
  }
}
node {
  name: "device_dummy_7/Initializer/random_uniform/max"
  op: "Const"
  attr {
    key: "_class"
    value {
      list {
        s: "loc:@device_dummy_7"
      }
    }
  }
  attr {
    key: "_output_shapes"
    value {
      list {
        shape {
        }
      }
    }
  }
  attr {
    key: "dtype"
    value {
      type: DT_FLOAT
    }
  }
  attr {
    key: "value"
    value {
      tensor {
        dtype: DT_FLOAT
        tensor_shape {
        }
        float_val: 1.7320507764816284
      }
    }
  }
}
node {
  name: "device_dummy_7/Initializer/random_uniform/RandomUniform"
  op: "RandomUniform"
  input: "device_dummy_7/Initializer/random_uniform/shape"
  attr {
    key: "T"
    value {
      type: DT_INT32
    }
  }
  attr {
    key: "_class"
    value {
      list {
        s: "loc:@device_dummy_7"
      }
    }
  }
  attr {
    key: "_output_shapes"
    value {
      list {
        shape {
          dim {
          }
        }
      }
    }
  }
  attr {
    key: "dtype"
    value {
      type: DT_FLOAT
    }
  }
  attr {
    key: "seed"
    value {
      i: 0
    }
  }
  attr {
    key: "seed2"
    value {
      i: 0
    }
  }
}
node {
  name: "device_dummy_7/Initializer/random_uniform/sub"
  op: "Sub"
  input: "device_dummy_7/Initializer/random_uniform/max"
  input: "device_dummy_7/Initializer/random_uniform/min"
  attr {
    key: "T"
    value {
      type: DT_FLOAT
    }
  }
  attr {
    key: "_class"
    value {
      list {
        s: "loc:@device_dummy_7"
      }
    }
  }
  attr {
    key: "_output_shapes"
    value {
      list {
        shape {
        }
      }
    }
  }
}
node {
  name: "device_dummy_7/Initializer/random_uniform/mul"
  op: "Mul"
  input: "device_dummy_7/Initializer/random_uniform/RandomUniform"
  input: "device_dummy_7/Initializer/random_uniform/sub"
  attr {
    key: "T"
    value {
      type: DT_FLOAT
    }
  }
  attr {
    key: "_class"
    value {
      list {
        s: "loc:@device_dummy_7"
      }
    }
  }
  attr {
    key: "_output_shapes"
    value {
      list {
        shape {
          dim {
          }
        }
      }
    }
  }
}
node {
  name: "device_dummy_7/Initializer/random_uniform"
  op: "Add"
  input: "device_dummy_7/Initializer/random_uniform/mul"
  input: "device_dummy_7/Initializer/random_uniform/min"
  attr {
    key: "T"
    value {
      type: DT_FLOAT
    }
  }
  attr {
    key: "_class"
    value {
      list {
        s: "loc:@device_dummy_7"
      }
    }
  }
  attr {
    key: "_output_shapes"
    value {
      list {
        shape {
          dim {
          }
        }
      }
    }
  }
}
node {
  name: "device_dummy_7"
  op: "VariableV2"
  device: "/device:CPU:0"
  attr {
    key: "_class"
    value {
      list {
        s: "loc:@device_dummy_7"
      }
    }
  }
  attr {
    key: "_output_shapes"
    value {
      list {
        shape {
          dim {
          }
        }
      }
    }
  }
  attr {
    key: "container"
    value {
      s: ""
    }
  }
  attr {
    key: "dtype"
    value {
      type: DT_FLOAT
    }
  }
  attr {
    key: "shape"
    value {
      shape {
        dim {
        }
      }
    }
  }
  attr {
    key: "shared_name"
    value {
      s: ""
    }
  }
}
node {
  name: "device_dummy_7/Assign"
  op: "Assign"
  input: "device_dummy_7"
  input: "device_dummy_7/Initializer/random_uniform"
  device: "/device:CPU:0"
  attr {
    key: "T"
    value {
      type: DT_FLOAT
    }
  }
  attr {
    key: "_class"
    value {
      list {
        s: "loc:@device_dummy_7"
      }
    }
  }
  attr {
    key: "_output_shapes"
    value {
      list {
        shape {
          dim {
          }
        }
      }
    }
  }
  attr {
    key: "use_locking"
    value {
      b: true
    }
  }
  attr {
    key: "validate_shape"
    value {
      b: true
    }
  }
}
node {
  name: "device_dummy_7/read"
  op: "Identity"
  input: "device_dummy_7"
  device: "/device:CPU:0"
  attr {
    key: "T"
    value {
      type: DT_FLOAT
    }
  }
  attr {
    key: "_class"
    value {
      list {
        s: "loc:@device_dummy_7"
      }
    }
  }
  attr {
    key: "_output_shapes"
    value {
      list {
        shape {
          dim {
          }
        }
      }
    }
  }
}
node {
  name: "device_dummy_8/Initializer/random_uniform/shape"
  op: "Const"
  attr {
    key: "_class"
    value {
      list {
        s: "loc:@device_dummy_8"
      }
    }
  }
  attr {
    key: "_output_shapes"
    value {
      list {
        shape {
          dim {
            size: 1
          }
        }
      }
    }
  }
  attr {
    key: "dtype"
    value {
      type: DT_INT32
    }
  }
  attr {
    key: "value"
    value {
      tensor {
        dtype: DT_INT32
        tensor_shape {
          dim {
            size: 1
          }
        }
        int_val: 0
      }
    }
  }
}
node {
  name: "device_dummy_8/Initializer/random_uniform/min"
  op: "Const"
  attr {
    key: "_class"
    value {
      list {
        s: "loc:@device_dummy_8"
      }
    }
  }
  attr {
    key: "_output_shapes"
    value {
      list {
        shape {
        }
      }
    }
  }
  attr {
    key: "dtype"
    value {
      type: DT_FLOAT
    }
  }
  attr {
    key: "value"
    value {
      tensor {
        dtype: DT_FLOAT
        tensor_shape {
        }
        float_val: -1.7320507764816284
      }
    }
  }
}
node {
  name: "device_dummy_8/Initializer/random_uniform/max"
  op: "Const"
  attr {
    key: "_class"
    value {
      list {
        s: "loc:@device_dummy_8"
      }
    }
  }
  attr {
    key: "_output_shapes"
    value {
      list {
        shape {
        }
      }
    }
  }
  attr {
    key: "dtype"
    value {
      type: DT_FLOAT
    }
  }
  attr {
    key: "value"
    value {
      tensor {
        dtype: DT_FLOAT
        tensor_shape {
        }
        float_val: 1.7320507764816284
      }
    }
  }
}
node {
  name: "device_dummy_8/Initializer/random_uniform/RandomUniform"
  op: "RandomUniform"
  input: "device_dummy_8/Initializer/random_uniform/shape"
  attr {
    key: "T"
    value {
      type: DT_INT32
    }
  }
  attr {
    key: "_class"
    value {
      list {
        s: "loc:@device_dummy_8"
      }
    }
  }
  attr {
    key: "_output_shapes"
    value {
      list {
        shape {
          dim {
          }
        }
      }
    }
  }
  attr {
    key: "dtype"
    value {
      type: DT_FLOAT
    }
  }
  attr {
    key: "seed"
    value {
      i: 0
    }
  }
  attr {
    key: "seed2"
    value {
      i: 0
    }
  }
}
node {
  name: "device_dummy_8/Initializer/random_uniform/sub"
  op: "Sub"
  input: "device_dummy_8/Initializer/random_uniform/max"
  input: "device_dummy_8/Initializer/random_uniform/min"
  attr {
    key: "T"
    value {
      type: DT_FLOAT
    }
  }
  attr {
    key: "_class"
    value {
      list {
        s: "loc:@device_dummy_8"
      }
    }
  }
  attr {
    key: "_output_shapes"
    value {
      list {
        shape {
        }
      }
    }
  }
}
node {
  name: "device_dummy_8/Initializer/random_uniform/mul"
  op: "Mul"
  input: "device_dummy_8/Initializer/random_uniform/RandomUniform"
  input: "device_dummy_8/Initializer/random_uniform/sub"
  attr {
    key: "T"
    value {
      type: DT_FLOAT
    }
  }
  attr {
    key: "_class"
    value {
      list {
        s: "loc:@device_dummy_8"
      }
    }
  }
  attr {
    key: "_output_shapes"
    value {
      list {
        shape {
          dim {
          }
        }
      }
    }
  }
}
node {
  name: "device_dummy_8/Initializer/random_uniform"
  op: "Add"
  input: "device_dummy_8/Initializer/random_uniform/mul"
  input: "device_dummy_8/Initializer/random_uniform/min"
  attr {
    key: "T"
    value {
      type: DT_FLOAT
    }
  }
  attr {
    key: "_class"
    value {
      list {
        s: "loc:@device_dummy_8"
      }
    }
  }
  attr {
    key: "_output_shapes"
    value {
      list {
        shape {
          dim {
          }
        }
      }
    }
  }
}
node {
  name: "device_dummy_8"
  op: "VariableV2"
  device: "/device:CPU:0"
  attr {
    key: "_class"
    value {
      list {
        s: "loc:@device_dummy_8"
      }
    }
  }
  attr {
    key: "_output_shapes"
    value {
      list {
        shape {
          dim {
          }
        }
      }
    }
  }
  attr {
    key: "container"
    value {
      s: ""
    }
  }
  attr {
    key: "dtype"
    value {
      type: DT_FLOAT
    }
  }
  attr {
    key: "shape"
    value {
      shape {
        dim {
        }
      }
    }
  }
  attr {
    key: "shared_name"
    value {
      s: ""
    }
  }
}
node {
  name: "device_dummy_8/Assign"
  op: "Assign"
  input: "device_dummy_8"
  input: "device_dummy_8/Initializer/random_uniform"
  device: "/device:CPU:0"
  attr {
    key: "T"
    value {
      type: DT_FLOAT
    }
  }
  attr {
    key: "_class"
    value {
      list {
        s: "loc:@device_dummy_8"
      }
    }
  }
  attr {
    key: "_output_shapes"
    value {
      list {
        shape {
          dim {
          }
        }
      }
    }
  }
  attr {
    key: "use_locking"
    value {
      b: true
    }
  }
  attr {
    key: "validate_shape"
    value {
      b: true
    }
  }
}
node {
  name: "device_dummy_8/read"
  op: "Identity"
  input: "device_dummy_8"
  device: "/device:CPU:0"
  attr {
    key: "T"
    value {
      type: DT_FLOAT
    }
  }
  attr {
    key: "_class"
    value {
      list {
        s: "loc:@device_dummy_8"
      }
    }
  }
  attr {
    key: "_output_shapes"
    value {
      list {
        shape {
          dim {
          }
        }
      }
    }
  }
}
node {
  name: "device_dummy_9/Initializer/random_uniform/shape"
  op: "Const"
  attr {
    key: "_class"
    value {
      list {
        s: "loc:@device_dummy_9"
      }
    }
  }
  attr {
    key: "_output_shapes"
    value {
      list {
        shape {
          dim {
            size: 1
          }
        }
      }
    }
  }
  attr {
    key: "dtype"
    value {
      type: DT_INT32
    }
  }
  attr {
    key: "value"
    value {
      tensor {
        dtype: DT_INT32
        tensor_shape {
          dim {
            size: 1
          }
        }
        int_val: 0
      }
    }
  }
}
node {
  name: "device_dummy_9/Initializer/random_uniform/min"
  op: "Const"
  attr {
    key: "_class"
    value {
      list {
        s: "loc:@device_dummy_9"
      }
    }
  }
  attr {
    key: "_output_shapes"
    value {
      list {
        shape {
        }
      }
    }
  }
  attr {
    key: "dtype"
    value {
      type: DT_FLOAT
    }
  }
  attr {
    key: "value"
    value {
      tensor {
        dtype: DT_FLOAT
        tensor_shape {
        }
        float_val: -1.7320507764816284
      }
    }
  }
}
node {
  name: "device_dummy_9/Initializer/random_uniform/max"
  op: "Const"
  attr {
    key: "_class"
    value {
      list {
        s: "loc:@device_dummy_9"
      }
    }
  }
  attr {
    key: "_output_shapes"
    value {
      list {
        shape {
        }
      }
    }
  }
  attr {
    key: "dtype"
    value {
      type: DT_FLOAT
    }
  }
  attr {
    key: "value"
    value {
      tensor {
        dtype: DT_FLOAT
        tensor_shape {
        }
        float_val: 1.7320507764816284
      }
    }
  }
}
node {
  name: "device_dummy_9/Initializer/random_uniform/RandomUniform"
  op: "RandomUniform"
  input: "device_dummy_9/Initializer/random_uniform/shape"
  attr {
    key: "T"
    value {
      type: DT_INT32
    }
  }
  attr {
    key: "_class"
    value {
      list {
        s: "loc:@device_dummy_9"
      }
    }
  }
  attr {
    key: "_output_shapes"
    value {
      list {
        shape {
          dim {
          }
        }
      }
    }
  }
  attr {
    key: "dtype"
    value {
      type: DT_FLOAT
    }
  }
  attr {
    key: "seed"
    value {
      i: 0
    }
  }
  attr {
    key: "seed2"
    value {
      i: 0
    }
  }
}
node {
  name: "device_dummy_9/Initializer/random_uniform/sub"
  op: "Sub"
  input: "device_dummy_9/Initializer/random_uniform/max"
  input: "device_dummy_9/Initializer/random_uniform/min"
  attr {
    key: "T"
    value {
      type: DT_FLOAT
    }
  }
  attr {
    key: "_class"
    value {
      list {
        s: "loc:@device_dummy_9"
      }
    }
  }
  attr {
    key: "_output_shapes"
    value {
      list {
        shape {
        }
      }
    }
  }
}
node {
  name: "device_dummy_9/Initializer/random_uniform/mul"
  op: "Mul"
  input: "device_dummy_9/Initializer/random_uniform/RandomUniform"
  input: "device_dummy_9/Initializer/random_uniform/sub"
  attr {
    key: "T"
    value {
      type: DT_FLOAT
    }
  }
  attr {
    key: "_class"
    value {
      list {
        s: "loc:@device_dummy_9"
      }
    }
  }
  attr {
    key: "_output_shapes"
    value {
      list {
        shape {
          dim {
          }
        }
      }
    }
  }
}
node {
  name: "device_dummy_9/Initializer/random_uniform"
  op: "Add"
  input: "device_dummy_9/Initializer/random_uniform/mul"
  input: "device_dummy_9/Initializer/random_uniform/min"
  attr {
    key: "T"
    value {
      type: DT_FLOAT
    }
  }
  attr {
    key: "_class"
    value {
      list {
        s: "loc:@device_dummy_9"
      }
    }
  }
  attr {
    key: "_output_shapes"
    value {
      list {
        shape {
          dim {
          }
        }
      }
    }
  }
}
node {
  name: "device_dummy_9"
  op: "VariableV2"
  device: "/device:CPU:0"
  attr {
    key: "_class"
    value {
      list {
        s: "loc:@device_dummy_9"
      }
    }
  }
  attr {
    key: "_output_shapes"
    value {
      list {
        shape {
          dim {
          }
        }
      }
    }
  }
  attr {
    key: "container"
    value {
      s: ""
    }
  }
  attr {
    key: "dtype"
    value {
      type: DT_FLOAT
    }
  }
  attr {
    key: "shape"
    value {
      shape {
        dim {
        }
      }
    }
  }
  attr {
    key: "shared_name"
    value {
      s: ""
    }
  }
}
node {
  name: "device_dummy_9/Assign"
  op: "Assign"
  input: "device_dummy_9"
  input: "device_dummy_9/Initializer/random_uniform"
  device: "/device:CPU:0"
  attr {
    key: "T"
    value {
      type: DT_FLOAT
    }
  }
  attr {
    key: "_class"
    value {
      list {
        s: "loc:@device_dummy_9"
      }
    }
  }
  attr {
    key: "_output_shapes"
    value {
      list {
        shape {
          dim {
          }
        }
      }
    }
  }
  attr {
    key: "use_locking"
    value {
      b: true
    }
  }
  attr {
    key: "validate_shape"
    value {
      b: true
    }
  }
}
node {
  name: "device_dummy_9/read"
  op: "Identity"
  input: "device_dummy_9"
  device: "/device:CPU:0"
  attr {
    key: "T"
    value {
      type: DT_FLOAT
    }
  }
  attr {
    key: "_class"
    value {
      list {
        s: "loc:@device_dummy_9"
      }
    }
  }
  attr {
    key: "_output_shapes"
    value {
      list {
        shape {
          dim {
          }
        }
      }
    }
  }
}
node {
  name: "device_dummy_10/Initializer/random_uniform/shape"
  op: "Const"
  attr {
    key: "_class"
    value {
      list {
        s: "loc:@device_dummy_10"
      }
    }
  }
  attr {
    key: "_output_shapes"
    value {
      list {
        shape {
          dim {
            size: 1
          }
        }
      }
    }
  }
  attr {
    key: "dtype"
    value {
      type: DT_INT32
    }
  }
  attr {
    key: "value"
    value {
      tensor {
        dtype: DT_INT32
        tensor_shape {
          dim {
            size: 1
          }
        }
        int_val: 0
      }
    }
  }
}
node {
  name: "device_dummy_10/Initializer/random_uniform/min"
  op: "Const"
  attr {
    key: "_class"
    value {
      list {
        s: "loc:@device_dummy_10"
      }
    }
  }
  attr {
    key: "_output_shapes"
    value {
      list {
        shape {
        }
      }
    }
  }
  attr {
    key: "dtype"
    value {
      type: DT_FLOAT
    }
  }
  attr {
    key: "value"
    value {
      tensor {
        dtype: DT_FLOAT
        tensor_shape {
        }
        float_val: -1.7320507764816284
      }
    }
  }
}
node {
  name: "device_dummy_10/Initializer/random_uniform/max"
  op: "Const"
  attr {
    key: "_class"
    value {
      list {
        s: "loc:@device_dummy_10"
      }
    }
  }
  attr {
    key: "_output_shapes"
    value {
      list {
        shape {
        }
      }
    }
  }
  attr {
    key: "dtype"
    value {
      type: DT_FLOAT
    }
  }
  attr {
    key: "value"
    value {
      tensor {
        dtype: DT_FLOAT
        tensor_shape {
        }
        float_val: 1.7320507764816284
      }
    }
  }
}
node {
  name: "device_dummy_10/Initializer/random_uniform/RandomUniform"
  op: "RandomUniform"
  input: "device_dummy_10/Initializer/random_uniform/shape"
  attr {
    key: "T"
    value {
      type: DT_INT32
    }
  }
  attr {
    key: "_class"
    value {
      list {
        s: "loc:@device_dummy_10"
      }
    }
  }
  attr {
    key: "_output_shapes"
    value {
      list {
        shape {
          dim {
          }
        }
      }
    }
  }
  attr {
    key: "dtype"
    value {
      type: DT_FLOAT
    }
  }
  attr {
    key: "seed"
    value {
      i: 0
    }
  }
  attr {
    key: "seed2"
    value {
      i: 0
    }
  }
}
node {
  name: "device_dummy_10/Initializer/random_uniform/sub"
  op: "Sub"
  input: "device_dummy_10/Initializer/random_uniform/max"
  input: "device_dummy_10/Initializer/random_uniform/min"
  attr {
    key: "T"
    value {
      type: DT_FLOAT
    }
  }
  attr {
    key: "_class"
    value {
      list {
        s: "loc:@device_dummy_10"
      }
    }
  }
  attr {
    key: "_output_shapes"
    value {
      list {
        shape {
        }
      }
    }
  }
}
node {
  name: "device_dummy_10/Initializer/random_uniform/mul"
  op: "Mul"
  input: "device_dummy_10/Initializer/random_uniform/RandomUniform"
  input: "device_dummy_10/Initializer/random_uniform/sub"
  attr {
    key: "T"
    value {
      type: DT_FLOAT
    }
  }
  attr {
    key: "_class"
    value {
      list {
        s: "loc:@device_dummy_10"
      }
    }
  }
  attr {
    key: "_output_shapes"
    value {
      list {
        shape {
          dim {
          }
        }
      }
    }
  }
}
node {
  name: "device_dummy_10/Initializer/random_uniform"
  op: "Add"
  input: "device_dummy_10/Initializer/random_uniform/mul"
  input: "device_dummy_10/Initializer/random_uniform/min"
  attr {
    key: "T"
    value {
      type: DT_FLOAT
    }
  }
  attr {
    key: "_class"
    value {
      list {
        s: "loc:@device_dummy_10"
      }
    }
  }
  attr {
    key: "_output_shapes"
    value {
      list {
        shape {
          dim {
          }
        }
      }
    }
  }
}
node {
  name: "device_dummy_10"
  op: "VariableV2"
  device: "/device:CPU:0"
  attr {
    key: "_class"
    value {
      list {
        s: "loc:@device_dummy_10"
      }
    }
  }
  attr {
    key: "_output_shapes"
    value {
      list {
        shape {
          dim {
          }
        }
      }
    }
  }
  attr {
    key: "container"
    value {
      s: ""
    }
  }
  attr {
    key: "dtype"
    value {
      type: DT_FLOAT
    }
  }
  attr {
    key: "shape"
    value {
      shape {
        dim {
        }
      }
    }
  }
  attr {
    key: "shared_name"
    value {
      s: ""
    }
  }
}
node {
  name: "device_dummy_10/Assign"
  op: "Assign"
  input: "device_dummy_10"
  input: "device_dummy_10/Initializer/random_uniform"
  device: "/device:CPU:0"
  attr {
    key: "T"
    value {
      type: DT_FLOAT
    }
  }
  attr {
    key: "_class"
    value {
      list {
        s: "loc:@device_dummy_10"
      }
    }
  }
  attr {
    key: "_output_shapes"
    value {
      list {
        shape {
          dim {
          }
        }
      }
    }
  }
  attr {
    key: "use_locking"
    value {
      b: true
    }
  }
  attr {
    key: "validate_shape"
    value {
      b: true
    }
  }
}
node {
  name: "device_dummy_10/read"
  op: "Identity"
  input: "device_dummy_10"
  device: "/device:CPU:0"
  attr {
    key: "T"
    value {
      type: DT_FLOAT
    }
  }
  attr {
    key: "_class"
    value {
      list {
        s: "loc:@device_dummy_10"
      }
    }
  }
  attr {
    key: "_output_shapes"
    value {
      list {
        shape {
          dim {
          }
        }
      }
    }
  }
}
node {
  name: "device_dummy_11/Initializer/random_uniform/shape"
  op: "Const"
  attr {
    key: "_class"
    value {
      list {
        s: "loc:@device_dummy_11"
      }
    }
  }
  attr {
    key: "_output_shapes"
    value {
      list {
        shape {
          dim {
            size: 1
          }
        }
      }
    }
  }
  attr {
    key: "dtype"
    value {
      type: DT_INT32
    }
  }
  attr {
    key: "value"
    value {
      tensor {
        dtype: DT_INT32
        tensor_shape {
          dim {
            size: 1
          }
        }
        int_val: 0
      }
    }
  }
}
node {
  name: "device_dummy_11/Initializer/random_uniform/min"
  op: "Const"
  attr {
    key: "_class"
    value {
      list {
        s: "loc:@device_dummy_11"
      }
    }
  }
  attr {
    key: "_output_shapes"
    value {
      list {
        shape {
        }
      }
    }
  }
  attr {
    key: "dtype"
    value {
      type: DT_FLOAT
    }
  }
  attr {
    key: "value"
    value {
      tensor {
        dtype: DT_FLOAT
        tensor_shape {
        }
        float_val: -1.7320507764816284
      }
    }
  }
}
node {
  name: "device_dummy_11/Initializer/random_uniform/max"
  op: "Const"
  attr {
    key: "_class"
    value {
      list {
        s: "loc:@device_dummy_11"
      }
    }
  }
  attr {
    key: "_output_shapes"
    value {
      list {
        shape {
        }
      }
    }
  }
  attr {
    key: "dtype"
    value {
      type: DT_FLOAT
    }
  }
  attr {
    key: "value"
    value {
      tensor {
        dtype: DT_FLOAT
        tensor_shape {
        }
        float_val: 1.7320507764816284
      }
    }
  }
}
node {
  name: "device_dummy_11/Initializer/random_uniform/RandomUniform"
  op: "RandomUniform"
  input: "device_dummy_11/Initializer/random_uniform/shape"
  attr {
    key: "T"
    value {
      type: DT_INT32
    }
  }
  attr {
    key: "_class"
    value {
      list {
        s: "loc:@device_dummy_11"
      }
    }
  }
  attr {
    key: "_output_shapes"
    value {
      list {
        shape {
          dim {
          }
        }
      }
    }
  }
  attr {
    key: "dtype"
    value {
      type: DT_FLOAT
    }
  }
  attr {
    key: "seed"
    value {
      i: 0
    }
  }
  attr {
    key: "seed2"
    value {
      i: 0
    }
  }
}
node {
  name: "device_dummy_11/Initializer/random_uniform/sub"
  op: "Sub"
  input: "device_dummy_11/Initializer/random_uniform/max"
  input: "device_dummy_11/Initializer/random_uniform/min"
  attr {
    key: "T"
    value {
      type: DT_FLOAT
    }
  }
  attr {
    key: "_class"
    value {
      list {
        s: "loc:@device_dummy_11"
      }
    }
  }
  attr {
    key: "_output_shapes"
    value {
      list {
        shape {
        }
      }
    }
  }
}
node {
  name: "device_dummy_11/Initializer/random_uniform/mul"
  op: "Mul"
  input: "device_dummy_11/Initializer/random_uniform/RandomUniform"
  input: "device_dummy_11/Initializer/random_uniform/sub"
  attr {
    key: "T"
    value {
      type: DT_FLOAT
    }
  }
  attr {
    key: "_class"
    value {
      list {
        s: "loc:@device_dummy_11"
      }
    }
  }
  attr {
    key: "_output_shapes"
    value {
      list {
        shape {
          dim {
          }
        }
      }
    }
  }
}
node {
  name: "device_dummy_11/Initializer/random_uniform"
  op: "Add"
  input: "device_dummy_11/Initializer/random_uniform/mul"
  input: "device_dummy_11/Initializer/random_uniform/min"
  attr {
    key: "T"
    value {
      type: DT_FLOAT
    }
  }
  attr {
    key: "_class"
    value {
      list {
        s: "loc:@device_dummy_11"
      }
    }
  }
  attr {
    key: "_output_shapes"
    value {
      list {
        shape {
          dim {
          }
        }
      }
    }
  }
}
node {
  name: "device_dummy_11"
  op: "VariableV2"
  device: "/device:CPU:0"
  attr {
    key: "_class"
    value {
      list {
        s: "loc:@device_dummy_11"
      }
    }
  }
  attr {
    key: "_output_shapes"
    value {
      list {
        shape {
          dim {
          }
        }
      }
    }
  }
  attr {
    key: "container"
    value {
      s: ""
    }
  }
  attr {
    key: "dtype"
    value {
      type: DT_FLOAT
    }
  }
  attr {
    key: "shape"
    value {
      shape {
        dim {
        }
      }
    }
  }
  attr {
    key: "shared_name"
    value {
      s: ""
    }
  }
}
node {
  name: "device_dummy_11/Assign"
  op: "Assign"
  input: "device_dummy_11"
  input: "device_dummy_11/Initializer/random_uniform"
  device: "/device:CPU:0"
  attr {
    key: "T"
    value {
      type: DT_FLOAT
    }
  }
  attr {
    key: "_class"
    value {
      list {
        s: "loc:@device_dummy_11"
      }
    }
  }
  attr {
    key: "_output_shapes"
    value {
      list {
        shape {
          dim {
          }
        }
      }
    }
  }
  attr {
    key: "use_locking"
    value {
      b: true
    }
  }
  attr {
    key: "validate_shape"
    value {
      b: true
    }
  }
}
node {
  name: "device_dummy_11/read"
  op: "Identity"
  input: "device_dummy_11"
  device: "/device:CPU:0"
  attr {
    key: "T"
    value {
      type: DT_FLOAT
    }
  }
  attr {
    key: "_class"
    value {
      list {
        s: "loc:@device_dummy_11"
      }
    }
  }
  attr {
    key: "_output_shapes"
    value {
      list {
        shape {
          dim {
          }
        }
      }
    }
  }
}
node {
  name: "device_dummy_12/Initializer/random_uniform/shape"
  op: "Const"
  attr {
    key: "_class"
    value {
      list {
        s: "loc:@device_dummy_12"
      }
    }
  }
  attr {
    key: "_output_shapes"
    value {
      list {
        shape {
          dim {
            size: 1
          }
        }
      }
    }
  }
  attr {
    key: "dtype"
    value {
      type: DT_INT32
    }
  }
  attr {
    key: "value"
    value {
      tensor {
        dtype: DT_INT32
        tensor_shape {
          dim {
            size: 1
          }
        }
        int_val: 0
      }
    }
  }
}
node {
  name: "device_dummy_12/Initializer/random_uniform/min"
  op: "Const"
  attr {
    key: "_class"
    value {
      list {
        s: "loc:@device_dummy_12"
      }
    }
  }
  attr {
    key: "_output_shapes"
    value {
      list {
        shape {
        }
      }
    }
  }
  attr {
    key: "dtype"
    value {
      type: DT_FLOAT
    }
  }
  attr {
    key: "value"
    value {
      tensor {
        dtype: DT_FLOAT
        tensor_shape {
        }
        float_val: -1.7320507764816284
      }
    }
  }
}
node {
  name: "device_dummy_12/Initializer/random_uniform/max"
  op: "Const"
  attr {
    key: "_class"
    value {
      list {
        s: "loc:@device_dummy_12"
      }
    }
  }
  attr {
    key: "_output_shapes"
    value {
      list {
        shape {
        }
      }
    }
  }
  attr {
    key: "dtype"
    value {
      type: DT_FLOAT
    }
  }
  attr {
    key: "value"
    value {
      tensor {
        dtype: DT_FLOAT
        tensor_shape {
        }
        float_val: 1.7320507764816284
      }
    }
  }
}
node {
  name: "device_dummy_12/Initializer/random_uniform/RandomUniform"
  op: "RandomUniform"
  input: "device_dummy_12/Initializer/random_uniform/shape"
  attr {
    key: "T"
    value {
      type: DT_INT32
    }
  }
  attr {
    key: "_class"
    value {
      list {
        s: "loc:@device_dummy_12"
      }
    }
  }
  attr {
    key: "_output_shapes"
    value {
      list {
        shape {
          dim {
          }
        }
      }
    }
  }
  attr {
    key: "dtype"
    value {
      type: DT_FLOAT
    }
  }
  attr {
    key: "seed"
    value {
      i: 0
    }
  }
  attr {
    key: "seed2"
    value {
      i: 0
    }
  }
}
node {
  name: "device_dummy_12/Initializer/random_uniform/sub"
  op: "Sub"
  input: "device_dummy_12/Initializer/random_uniform/max"
  input: "device_dummy_12/Initializer/random_uniform/min"
  attr {
    key: "T"
    value {
      type: DT_FLOAT
    }
  }
  attr {
    key: "_class"
    value {
      list {
        s: "loc:@device_dummy_12"
      }
    }
  }
  attr {
    key: "_output_shapes"
    value {
      list {
        shape {
        }
      }
    }
  }
}
node {
  name: "device_dummy_12/Initializer/random_uniform/mul"
  op: "Mul"
  input: "device_dummy_12/Initializer/random_uniform/RandomUniform"
  input: "device_dummy_12/Initializer/random_uniform/sub"
  attr {
    key: "T"
    value {
      type: DT_FLOAT
    }
  }
  attr {
    key: "_class"
    value {
      list {
        s: "loc:@device_dummy_12"
      }
    }
  }
  attr {
    key: "_output_shapes"
    value {
      list {
        shape {
          dim {
          }
        }
      }
    }
  }
}
node {
  name: "device_dummy_12/Initializer/random_uniform"
  op: "Add"
  input: "device_dummy_12/Initializer/random_uniform/mul"
  input: "device_dummy_12/Initializer/random_uniform/min"
  attr {
    key: "T"
    value {
      type: DT_FLOAT
    }
  }
  attr {
    key: "_class"
    value {
      list {
        s: "loc:@device_dummy_12"
      }
    }
  }
  attr {
    key: "_output_shapes"
    value {
      list {
        shape {
          dim {
          }
        }
      }
    }
  }
}
node {
  name: "device_dummy_12"
  op: "VariableV2"
  device: "/device:CPU:0"
  attr {
    key: "_class"
    value {
      list {
        s: "loc:@device_dummy_12"
      }
    }
  }
  attr {
    key: "_output_shapes"
    value {
      list {
        shape {
          dim {
          }
        }
      }
    }
  }
  attr {
    key: "container"
    value {
      s: ""
    }
  }
  attr {
    key: "dtype"
    value {
      type: DT_FLOAT
    }
  }
  attr {
    key: "shape"
    value {
      shape {
        dim {
        }
      }
    }
  }
  attr {
    key: "shared_name"
    value {
      s: ""
    }
  }
}
node {
  name: "device_dummy_12/Assign"
  op: "Assign"
  input: "device_dummy_12"
  input: "device_dummy_12/Initializer/random_uniform"
  device: "/device:CPU:0"
  attr {
    key: "T"
    value {
      type: DT_FLOAT
    }
  }
  attr {
    key: "_class"
    value {
      list {
        s: "loc:@device_dummy_12"
      }
    }
  }
  attr {
    key: "_output_shapes"
    value {
      list {
        shape {
          dim {
          }
        }
      }
    }
  }
  attr {
    key: "use_locking"
    value {
      b: true
    }
  }
  attr {
    key: "validate_shape"
    value {
      b: true
    }
  }
}
node {
  name: "device_dummy_12/read"
  op: "Identity"
  input: "device_dummy_12"
  device: "/device:CPU:0"
  attr {
    key: "T"
    value {
      type: DT_FLOAT
    }
  }
  attr {
    key: "_class"
    value {
      list {
        s: "loc:@device_dummy_12"
      }
    }
  }
  attr {
    key: "_output_shapes"
    value {
      list {
        shape {
          dim {
          }
        }
      }
    }
  }
}
node {
  name: "device_dummy_13/Initializer/random_uniform/shape"
  op: "Const"
  attr {
    key: "_class"
    value {
      list {
        s: "loc:@device_dummy_13"
      }
    }
  }
  attr {
    key: "_output_shapes"
    value {
      list {
        shape {
          dim {
            size: 1
          }
        }
      }
    }
  }
  attr {
    key: "dtype"
    value {
      type: DT_INT32
    }
  }
  attr {
    key: "value"
    value {
      tensor {
        dtype: DT_INT32
        tensor_shape {
          dim {
            size: 1
          }
        }
        int_val: 0
      }
    }
  }
}
node {
  name: "device_dummy_13/Initializer/random_uniform/min"
  op: "Const"
  attr {
    key: "_class"
    value {
      list {
        s: "loc:@device_dummy_13"
      }
    }
  }
  attr {
    key: "_output_shapes"
    value {
      list {
        shape {
        }
      }
    }
  }
  attr {
    key: "dtype"
    value {
      type: DT_FLOAT
    }
  }
  attr {
    key: "value"
    value {
      tensor {
        dtype: DT_FLOAT
        tensor_shape {
        }
        float_val: -1.7320507764816284
      }
    }
  }
}
node {
  name: "device_dummy_13/Initializer/random_uniform/max"
  op: "Const"
  attr {
    key: "_class"
    value {
      list {
        s: "loc:@device_dummy_13"
      }
    }
  }
  attr {
    key: "_output_shapes"
    value {
      list {
        shape {
        }
      }
    }
  }
  attr {
    key: "dtype"
    value {
      type: DT_FLOAT
    }
  }
  attr {
    key: "value"
    value {
      tensor {
        dtype: DT_FLOAT
        tensor_shape {
        }
        float_val: 1.7320507764816284
      }
    }
  }
}
node {
  name: "device_dummy_13/Initializer/random_uniform/RandomUniform"
  op: "RandomUniform"
  input: "device_dummy_13/Initializer/random_uniform/shape"
  attr {
    key: "T"
    value {
      type: DT_INT32
    }
  }
  attr {
    key: "_class"
    value {
      list {
        s: "loc:@device_dummy_13"
      }
    }
  }
  attr {
    key: "_output_shapes"
    value {
      list {
        shape {
          dim {
          }
        }
      }
    }
  }
  attr {
    key: "dtype"
    value {
      type: DT_FLOAT
    }
  }
  attr {
    key: "seed"
    value {
      i: 0
    }
  }
  attr {
    key: "seed2"
    value {
      i: 0
    }
  }
}
node {
  name: "device_dummy_13/Initializer/random_uniform/sub"
  op: "Sub"
  input: "device_dummy_13/Initializer/random_uniform/max"
  input: "device_dummy_13/Initializer/random_uniform/min"
  attr {
    key: "T"
    value {
      type: DT_FLOAT
    }
  }
  attr {
    key: "_class"
    value {
      list {
        s: "loc:@device_dummy_13"
      }
    }
  }
  attr {
    key: "_output_shapes"
    value {
      list {
        shape {
        }
      }
    }
  }
}
node {
  name: "device_dummy_13/Initializer/random_uniform/mul"
  op: "Mul"
  input: "device_dummy_13/Initializer/random_uniform/RandomUniform"
  input: "device_dummy_13/Initializer/random_uniform/sub"
  attr {
    key: "T"
    value {
      type: DT_FLOAT
    }
  }
  attr {
    key: "_class"
    value {
      list {
        s: "loc:@device_dummy_13"
      }
    }
  }
  attr {
    key: "_output_shapes"
    value {
      list {
        shape {
          dim {
          }
        }
      }
    }
  }
}
node {
  name: "device_dummy_13/Initializer/random_uniform"
  op: "Add"
  input: "device_dummy_13/Initializer/random_uniform/mul"
  input: "device_dummy_13/Initializer/random_uniform/min"
  attr {
    key: "T"
    value {
      type: DT_FLOAT
    }
  }
  attr {
    key: "_class"
    value {
      list {
        s: "loc:@device_dummy_13"
      }
    }
  }
  attr {
    key: "_output_shapes"
    value {
      list {
        shape {
          dim {
          }
        }
      }
    }
  }
}
node {
  name: "device_dummy_13"
  op: "VariableV2"
  device: "/device:CPU:0"
  attr {
    key: "_class"
    value {
      list {
        s: "loc:@device_dummy_13"
      }
    }
  }
  attr {
    key: "_output_shapes"
    value {
      list {
        shape {
          dim {
          }
        }
      }
    }
  }
  attr {
    key: "container"
    value {
      s: ""
    }
  }
  attr {
    key: "dtype"
    value {
      type: DT_FLOAT
    }
  }
  attr {
    key: "shape"
    value {
      shape {
        dim {
        }
      }
    }
  }
  attr {
    key: "shared_name"
    value {
      s: ""
    }
  }
}
node {
  name: "device_dummy_13/Assign"
  op: "Assign"
  input: "device_dummy_13"
  input: "device_dummy_13/Initializer/random_uniform"
  device: "/device:CPU:0"
  attr {
    key: "T"
    value {
      type: DT_FLOAT
    }
  }
  attr {
    key: "_class"
    value {
      list {
        s: "loc:@device_dummy_13"
      }
    }
  }
  attr {
    key: "_output_shapes"
    value {
      list {
        shape {
          dim {
          }
        }
      }
    }
  }
  attr {
    key: "use_locking"
    value {
      b: true
    }
  }
  attr {
    key: "validate_shape"
    value {
      b: true
    }
  }
}
node {
  name: "device_dummy_13/read"
  op: "Identity"
  input: "device_dummy_13"
  device: "/device:CPU:0"
  attr {
    key: "T"
    value {
      type: DT_FLOAT
    }
  }
  attr {
    key: "_class"
    value {
      list {
        s: "loc:@device_dummy_13"
      }
    }
  }
  attr {
    key: "_output_shapes"
    value {
      list {
        shape {
          dim {
          }
        }
      }
    }
  }
}
node {
  name: "device_dummy_14/Initializer/random_uniform/shape"
  op: "Const"
  attr {
    key: "_class"
    value {
      list {
        s: "loc:@device_dummy_14"
      }
    }
  }
  attr {
    key: "_output_shapes"
    value {
      list {
        shape {
          dim {
            size: 1
          }
        }
      }
    }
  }
  attr {
    key: "dtype"
    value {
      type: DT_INT32
    }
  }
  attr {
    key: "value"
    value {
      tensor {
        dtype: DT_INT32
        tensor_shape {
          dim {
            size: 1
          }
        }
        int_val: 0
      }
    }
  }
}
node {
  name: "device_dummy_14/Initializer/random_uniform/min"
  op: "Const"
  attr {
    key: "_class"
    value {
      list {
        s: "loc:@device_dummy_14"
      }
    }
  }
  attr {
    key: "_output_shapes"
    value {
      list {
        shape {
        }
      }
    }
  }
  attr {
    key: "dtype"
    value {
      type: DT_FLOAT
    }
  }
  attr {
    key: "value"
    value {
      tensor {
        dtype: DT_FLOAT
        tensor_shape {
        }
        float_val: -1.7320507764816284
      }
    }
  }
}
node {
  name: "device_dummy_14/Initializer/random_uniform/max"
  op: "Const"
  attr {
    key: "_class"
    value {
      list {
        s: "loc:@device_dummy_14"
      }
    }
  }
  attr {
    key: "_output_shapes"
    value {
      list {
        shape {
        }
      }
    }
  }
  attr {
    key: "dtype"
    value {
      type: DT_FLOAT
    }
  }
  attr {
    key: "value"
    value {
      tensor {
        dtype: DT_FLOAT
        tensor_shape {
        }
        float_val: 1.7320507764816284
      }
    }
  }
}
node {
  name: "device_dummy_14/Initializer/random_uniform/RandomUniform"
  op: "RandomUniform"
  input: "device_dummy_14/Initializer/random_uniform/shape"
  attr {
    key: "T"
    value {
      type: DT_INT32
    }
  }
  attr {
    key: "_class"
    value {
      list {
        s: "loc:@device_dummy_14"
      }
    }
  }
  attr {
    key: "_output_shapes"
    value {
      list {
        shape {
          dim {
          }
        }
      }
    }
  }
  attr {
    key: "dtype"
    value {
      type: DT_FLOAT
    }
  }
  attr {
    key: "seed"
    value {
      i: 0
    }
  }
  attr {
    key: "seed2"
    value {
      i: 0
    }
  }
}
node {
  name: "device_dummy_14/Initializer/random_uniform/sub"
  op: "Sub"
  input: "device_dummy_14/Initializer/random_uniform/max"
  input: "device_dummy_14/Initializer/random_uniform/min"
  attr {
    key: "T"
    value {
      type: DT_FLOAT
    }
  }
  attr {
    key: "_class"
    value {
      list {
        s: "loc:@device_dummy_14"
      }
    }
  }
  attr {
    key: "_output_shapes"
    value {
      list {
        shape {
        }
      }
    }
  }
}
node {
  name: "device_dummy_14/Initializer/random_uniform/mul"
  op: "Mul"
  input: "device_dummy_14/Initializer/random_uniform/RandomUniform"
  input: "device_dummy_14/Initializer/random_uniform/sub"
  attr {
    key: "T"
    value {
      type: DT_FLOAT
    }
  }
  attr {
    key: "_class"
    value {
      list {
        s: "loc:@device_dummy_14"
      }
    }
  }
  attr {
    key: "_output_shapes"
    value {
      list {
        shape {
          dim {
          }
        }
      }
    }
  }
}
node {
  name: "device_dummy_14/Initializer/random_uniform"
  op: "Add"
  input: "device_dummy_14/Initializer/random_uniform/mul"
  input: "device_dummy_14/Initializer/random_uniform/min"
  attr {
    key: "T"
    value {
      type: DT_FLOAT
    }
  }
  attr {
    key: "_class"
    value {
      list {
        s: "loc:@device_dummy_14"
      }
    }
  }
  attr {
    key: "_output_shapes"
    value {
      list {
        shape {
          dim {
          }
        }
      }
    }
  }
}
node {
  name: "device_dummy_14"
  op: "VariableV2"
  device: "/device:CPU:0"
  attr {
    key: "_class"
    value {
      list {
        s: "loc:@device_dummy_14"
      }
    }
  }
  attr {
    key: "_output_shapes"
    value {
      list {
        shape {
          dim {
          }
        }
      }
    }
  }
  attr {
    key: "container"
    value {
      s: ""
    }
  }
  attr {
    key: "dtype"
    value {
      type: DT_FLOAT
    }
  }
  attr {
    key: "shape"
    value {
      shape {
        dim {
        }
      }
    }
  }
  attr {
    key: "shared_name"
    value {
      s: ""
    }
  }
}
node {
  name: "device_dummy_14/Assign"
  op: "Assign"
  input: "device_dummy_14"
  input: "device_dummy_14/Initializer/random_uniform"
  device: "/device:CPU:0"
  attr {
    key: "T"
    value {
      type: DT_FLOAT
    }
  }
  attr {
    key: "_class"
    value {
      list {
        s: "loc:@device_dummy_14"
      }
    }
  }
  attr {
    key: "_output_shapes"
    value {
      list {
        shape {
          dim {
          }
        }
      }
    }
  }
  attr {
    key: "use_locking"
    value {
      b: true
    }
  }
  attr {
    key: "validate_shape"
    value {
      b: true
    }
  }
}
node {
  name: "device_dummy_14/read"
  op: "Identity"
  input: "device_dummy_14"
  device: "/device:CPU:0"
  attr {
    key: "T"
    value {
      type: DT_FLOAT
    }
  }
  attr {
    key: "_class"
    value {
      list {
        s: "loc:@device_dummy_14"
      }
    }
  }
  attr {
    key: "_output_shapes"
    value {
      list {
        shape {
          dim {
          }
        }
      }
    }
  }
}
node {
  name: "device_dummy_15/Initializer/random_uniform/shape"
  op: "Const"
  attr {
    key: "_class"
    value {
      list {
        s: "loc:@device_dummy_15"
      }
    }
  }
  attr {
    key: "_output_shapes"
    value {
      list {
        shape {
          dim {
            size: 1
          }
        }
      }
    }
  }
  attr {
    key: "dtype"
    value {
      type: DT_INT32
    }
  }
  attr {
    key: "value"
    value {
      tensor {
        dtype: DT_INT32
        tensor_shape {
          dim {
            size: 1
          }
        }
        int_val: 0
      }
    }
  }
}
node {
  name: "device_dummy_15/Initializer/random_uniform/min"
  op: "Const"
  attr {
    key: "_class"
    value {
      list {
        s: "loc:@device_dummy_15"
      }
    }
  }
  attr {
    key: "_output_shapes"
    value {
      list {
        shape {
        }
      }
    }
  }
  attr {
    key: "dtype"
    value {
      type: DT_FLOAT
    }
  }
  attr {
    key: "value"
    value {
      tensor {
        dtype: DT_FLOAT
        tensor_shape {
        }
        float_val: -1.7320507764816284
      }
    }
  }
}
node {
  name: "device_dummy_15/Initializer/random_uniform/max"
  op: "Const"
  attr {
    key: "_class"
    value {
      list {
        s: "loc:@device_dummy_15"
      }
    }
  }
  attr {
    key: "_output_shapes"
    value {
      list {
        shape {
        }
      }
    }
  }
  attr {
    key: "dtype"
    value {
      type: DT_FLOAT
    }
  }
  attr {
    key: "value"
    value {
      tensor {
        dtype: DT_FLOAT
        tensor_shape {
        }
        float_val: 1.7320507764816284
      }
    }
  }
}
node {
  name: "device_dummy_15/Initializer/random_uniform/RandomUniform"
  op: "RandomUniform"
  input: "device_dummy_15/Initializer/random_uniform/shape"
  attr {
    key: "T"
    value {
      type: DT_INT32
    }
  }
  attr {
    key: "_class"
    value {
      list {
        s: "loc:@device_dummy_15"
      }
    }
  }
  attr {
    key: "_output_shapes"
    value {
      list {
        shape {
          dim {
          }
        }
      }
    }
  }
  attr {
    key: "dtype"
    value {
      type: DT_FLOAT
    }
  }
  attr {
    key: "seed"
    value {
      i: 0
    }
  }
  attr {
    key: "seed2"
    value {
      i: 0
    }
  }
}
node {
  name: "device_dummy_15/Initializer/random_uniform/sub"
  op: "Sub"
  input: "device_dummy_15/Initializer/random_uniform/max"
  input: "device_dummy_15/Initializer/random_uniform/min"
  attr {
    key: "T"
    value {
      type: DT_FLOAT
    }
  }
  attr {
    key: "_class"
    value {
      list {
        s: "loc:@device_dummy_15"
      }
    }
  }
  attr {
    key: "_output_shapes"
    value {
      list {
        shape {
        }
      }
    }
  }
}
node {
  name: "device_dummy_15/Initializer/random_uniform/mul"
  op: "Mul"
  input: "device_dummy_15/Initializer/random_uniform/RandomUniform"
  input: "device_dummy_15/Initializer/random_uniform/sub"
  attr {
    key: "T"
    value {
      type: DT_FLOAT
    }
  }
  attr {
    key: "_class"
    value {
      list {
        s: "loc:@device_dummy_15"
      }
    }
  }
  attr {
    key: "_output_shapes"
    value {
      list {
        shape {
          dim {
          }
        }
      }
    }
  }
}
node {
  name: "device_dummy_15/Initializer/random_uniform"
  op: "Add"
  input: "device_dummy_15/Initializer/random_uniform/mul"
  input: "device_dummy_15/Initializer/random_uniform/min"
  attr {
    key: "T"
    value {
      type: DT_FLOAT
    }
  }
  attr {
    key: "_class"
    value {
      list {
        s: "loc:@device_dummy_15"
      }
    }
  }
  attr {
    key: "_output_shapes"
    value {
      list {
        shape {
          dim {
          }
        }
      }
    }
  }
}
node {
  name: "device_dummy_15"
  op: "VariableV2"
  device: "/device:CPU:0"
  attr {
    key: "_class"
    value {
      list {
        s: "loc:@device_dummy_15"
      }
    }
  }
  attr {
    key: "_output_shapes"
    value {
      list {
        shape {
          dim {
          }
        }
      }
    }
  }
  attr {
    key: "container"
    value {
      s: ""
    }
  }
  attr {
    key: "dtype"
    value {
      type: DT_FLOAT
    }
  }
  attr {
    key: "shape"
    value {
      shape {
        dim {
        }
      }
    }
  }
  attr {
    key: "shared_name"
    value {
      s: ""
    }
  }
}
node {
  name: "device_dummy_15/Assign"
  op: "Assign"
  input: "device_dummy_15"
  input: "device_dummy_15/Initializer/random_uniform"
  device: "/device:CPU:0"
  attr {
    key: "T"
    value {
      type: DT_FLOAT
    }
  }
  attr {
    key: "_class"
    value {
      list {
        s: "loc:@device_dummy_15"
      }
    }
  }
  attr {
    key: "_output_shapes"
    value {
      list {
        shape {
          dim {
          }
        }
      }
    }
  }
  attr {
    key: "use_locking"
    value {
      b: true
    }
  }
  attr {
    key: "validate_shape"
    value {
      b: true
    }
  }
}
node {
  name: "device_dummy_15/read"
  op: "Identity"
  input: "device_dummy_15"
  device: "/device:CPU:0"
  attr {
    key: "T"
    value {
      type: DT_FLOAT
    }
  }
  attr {
    key: "_class"
    value {
      list {
        s: "loc:@device_dummy_15"
      }
    }
  }
  attr {
    key: "_output_shapes"
    value {
      list {
        shape {
          dim {
          }
        }
      }
    }
  }
}
node {
  name: "device_dummy_16/Initializer/random_uniform/shape"
  op: "Const"
  attr {
    key: "_class"
    value {
      list {
        s: "loc:@device_dummy_16"
      }
    }
  }
  attr {
    key: "_output_shapes"
    value {
      list {
        shape {
          dim {
            size: 1
          }
        }
      }
    }
  }
  attr {
    key: "dtype"
    value {
      type: DT_INT32
    }
  }
  attr {
    key: "value"
    value {
      tensor {
        dtype: DT_INT32
        tensor_shape {
          dim {
            size: 1
          }
        }
        int_val: 0
      }
    }
  }
}
node {
  name: "device_dummy_16/Initializer/random_uniform/min"
  op: "Const"
  attr {
    key: "_class"
    value {
      list {
        s: "loc:@device_dummy_16"
      }
    }
  }
  attr {
    key: "_output_shapes"
    value {
      list {
        shape {
        }
      }
    }
  }
  attr {
    key: "dtype"
    value {
      type: DT_FLOAT
    }
  }
  attr {
    key: "value"
    value {
      tensor {
        dtype: DT_FLOAT
        tensor_shape {
        }
        float_val: -1.7320507764816284
      }
    }
  }
}
node {
  name: "device_dummy_16/Initializer/random_uniform/max"
  op: "Const"
  attr {
    key: "_class"
    value {
      list {
        s: "loc:@device_dummy_16"
      }
    }
  }
  attr {
    key: "_output_shapes"
    value {
      list {
        shape {
        }
      }
    }
  }
  attr {
    key: "dtype"
    value {
      type: DT_FLOAT
    }
  }
  attr {
    key: "value"
    value {
      tensor {
        dtype: DT_FLOAT
        tensor_shape {
        }
        float_val: 1.7320507764816284
      }
    }
  }
}
node {
  name: "device_dummy_16/Initializer/random_uniform/RandomUniform"
  op: "RandomUniform"
  input: "device_dummy_16/Initializer/random_uniform/shape"
  attr {
    key: "T"
    value {
      type: DT_INT32
    }
  }
  attr {
    key: "_class"
    value {
      list {
        s: "loc:@device_dummy_16"
      }
    }
  }
  attr {
    key: "_output_shapes"
    value {
      list {
        shape {
          dim {
          }
        }
      }
    }
  }
  attr {
    key: "dtype"
    value {
      type: DT_FLOAT
    }
  }
  attr {
    key: "seed"
    value {
      i: 0
    }
  }
  attr {
    key: "seed2"
    value {
      i: 0
    }
  }
}
node {
  name: "device_dummy_16/Initializer/random_uniform/sub"
  op: "Sub"
  input: "device_dummy_16/Initializer/random_uniform/max"
  input: "device_dummy_16/Initializer/random_uniform/min"
  attr {
    key: "T"
    value {
      type: DT_FLOAT
    }
  }
  attr {
    key: "_class"
    value {
      list {
        s: "loc:@device_dummy_16"
      }
    }
  }
  attr {
    key: "_output_shapes"
    value {
      list {
        shape {
        }
      }
    }
  }
}
node {
  name: "device_dummy_16/Initializer/random_uniform/mul"
  op: "Mul"
  input: "device_dummy_16/Initializer/random_uniform/RandomUniform"
  input: "device_dummy_16/Initializer/random_uniform/sub"
  attr {
    key: "T"
    value {
      type: DT_FLOAT
    }
  }
  attr {
    key: "_class"
    value {
      list {
        s: "loc:@device_dummy_16"
      }
    }
  }
  attr {
    key: "_output_shapes"
    value {
      list {
        shape {
          dim {
          }
        }
      }
    }
  }
}
node {
  name: "device_dummy_16/Initializer/random_uniform"
  op: "Add"
  input: "device_dummy_16/Initializer/random_uniform/mul"
  input: "device_dummy_16/Initializer/random_uniform/min"
  attr {
    key: "T"
    value {
      type: DT_FLOAT
    }
  }
  attr {
    key: "_class"
    value {
      list {
        s: "loc:@device_dummy_16"
      }
    }
  }
  attr {
    key: "_output_shapes"
    value {
      list {
        shape {
          dim {
          }
        }
      }
    }
  }
}
node {
  name: "device_dummy_16"
  op: "VariableV2"
  device: "/device:CPU:0"
  attr {
    key: "_class"
    value {
      list {
        s: "loc:@device_dummy_16"
      }
    }
  }
  attr {
    key: "_output_shapes"
    value {
      list {
        shape {
          dim {
          }
        }
      }
    }
  }
  attr {
    key: "container"
    value {
      s: ""
    }
  }
  attr {
    key: "dtype"
    value {
      type: DT_FLOAT
    }
  }
  attr {
    key: "shape"
    value {
      shape {
        dim {
        }
      }
    }
  }
  attr {
    key: "shared_name"
    value {
      s: ""
    }
  }
}
node {
  name: "device_dummy_16/Assign"
  op: "Assign"
  input: "device_dummy_16"
  input: "device_dummy_16/Initializer/random_uniform"
  device: "/device:CPU:0"
  attr {
    key: "T"
    value {
      type: DT_FLOAT
    }
  }
  attr {
    key: "_class"
    value {
      list {
        s: "loc:@device_dummy_16"
      }
    }
  }
  attr {
    key: "_output_shapes"
    value {
      list {
        shape {
          dim {
          }
        }
      }
    }
  }
  attr {
    key: "use_locking"
    value {
      b: true
    }
  }
  attr {
    key: "validate_shape"
    value {
      b: true
    }
  }
}
node {
  name: "device_dummy_16/read"
  op: "Identity"
  input: "device_dummy_16"
  device: "/device:CPU:0"
  attr {
    key: "T"
    value {
      type: DT_FLOAT
    }
  }
  attr {
    key: "_class"
    value {
      list {
        s: "loc:@device_dummy_16"
      }
    }
  }
  attr {
    key: "_output_shapes"
    value {
      list {
        shape {
          dim {
          }
        }
      }
    }
  }
}
node {
  name: "device_dummy_17/Initializer/random_uniform/shape"
  op: "Const"
  attr {
    key: "_class"
    value {
      list {
        s: "loc:@device_dummy_17"
      }
    }
  }
  attr {
    key: "_output_shapes"
    value {
      list {
        shape {
          dim {
            size: 1
          }
        }
      }
    }
  }
  attr {
    key: "dtype"
    value {
      type: DT_INT32
    }
  }
  attr {
    key: "value"
    value {
      tensor {
        dtype: DT_INT32
        tensor_shape {
          dim {
            size: 1
          }
        }
        int_val: 0
      }
    }
  }
}
node {
  name: "device_dummy_17/Initializer/random_uniform/min"
  op: "Const"
  attr {
    key: "_class"
    value {
      list {
        s: "loc:@device_dummy_17"
      }
    }
  }
  attr {
    key: "_output_shapes"
    value {
      list {
        shape {
        }
      }
    }
  }
  attr {
    key: "dtype"
    value {
      type: DT_FLOAT
    }
  }
  attr {
    key: "value"
    value {
      tensor {
        dtype: DT_FLOAT
        tensor_shape {
        }
        float_val: -1.7320507764816284
      }
    }
  }
}
node {
  name: "device_dummy_17/Initializer/random_uniform/max"
  op: "Const"
  attr {
    key: "_class"
    value {
      list {
        s: "loc:@device_dummy_17"
      }
    }
  }
  attr {
    key: "_output_shapes"
    value {
      list {
        shape {
        }
      }
    }
  }
  attr {
    key: "dtype"
    value {
      type: DT_FLOAT
    }
  }
  attr {
    key: "value"
    value {
      tensor {
        dtype: DT_FLOAT
        tensor_shape {
        }
        float_val: 1.7320507764816284
      }
    }
  }
}
node {
  name: "device_dummy_17/Initializer/random_uniform/RandomUniform"
  op: "RandomUniform"
  input: "device_dummy_17/Initializer/random_uniform/shape"
  attr {
    key: "T"
    value {
      type: DT_INT32
    }
  }
  attr {
    key: "_class"
    value {
      list {
        s: "loc:@device_dummy_17"
      }
    }
  }
  attr {
    key: "_output_shapes"
    value {
      list {
        shape {
          dim {
          }
        }
      }
    }
  }
  attr {
    key: "dtype"
    value {
      type: DT_FLOAT
    }
  }
  attr {
    key: "seed"
    value {
      i: 0
    }
  }
  attr {
    key: "seed2"
    value {
      i: 0
    }
  }
}
node {
  name: "device_dummy_17/Initializer/random_uniform/sub"
  op: "Sub"
  input: "device_dummy_17/Initializer/random_uniform/max"
  input: "device_dummy_17/Initializer/random_uniform/min"
  attr {
    key: "T"
    value {
      type: DT_FLOAT
    }
  }
  attr {
    key: "_class"
    value {
      list {
        s: "loc:@device_dummy_17"
      }
    }
  }
  attr {
    key: "_output_shapes"
    value {
      list {
        shape {
        }
      }
    }
  }
}
node {
  name: "device_dummy_17/Initializer/random_uniform/mul"
  op: "Mul"
  input: "device_dummy_17/Initializer/random_uniform/RandomUniform"
  input: "device_dummy_17/Initializer/random_uniform/sub"
  attr {
    key: "T"
    value {
      type: DT_FLOAT
    }
  }
  attr {
    key: "_class"
    value {
      list {
        s: "loc:@device_dummy_17"
      }
    }
  }
  attr {
    key: "_output_shapes"
    value {
      list {
        shape {
          dim {
          }
        }
      }
    }
  }
}
node {
  name: "device_dummy_17/Initializer/random_uniform"
  op: "Add"
  input: "device_dummy_17/Initializer/random_uniform/mul"
  input: "device_dummy_17/Initializer/random_uniform/min"
  attr {
    key: "T"
    value {
      type: DT_FLOAT
    }
  }
  attr {
    key: "_class"
    value {
      list {
        s: "loc:@device_dummy_17"
      }
    }
  }
  attr {
    key: "_output_shapes"
    value {
      list {
        shape {
          dim {
          }
        }
      }
    }
  }
}
node {
  name: "device_dummy_17"
  op: "VariableV2"
  device: "/device:CPU:0"
  attr {
    key: "_class"
    value {
      list {
        s: "loc:@device_dummy_17"
      }
    }
  }
  attr {
    key: "_output_shapes"
    value {
      list {
        shape {
          dim {
          }
        }
      }
    }
  }
  attr {
    key: "container"
    value {
      s: ""
    }
  }
  attr {
    key: "dtype"
    value {
      type: DT_FLOAT
    }
  }
  attr {
    key: "shape"
    value {
      shape {
        dim {
        }
      }
    }
  }
  attr {
    key: "shared_name"
    value {
      s: ""
    }
  }
}
node {
  name: "device_dummy_17/Assign"
  op: "Assign"
  input: "device_dummy_17"
  input: "device_dummy_17/Initializer/random_uniform"
  device: "/device:CPU:0"
  attr {
    key: "T"
    value {
      type: DT_FLOAT
    }
  }
  attr {
    key: "_class"
    value {
      list {
        s: "loc:@device_dummy_17"
      }
    }
  }
  attr {
    key: "_output_shapes"
    value {
      list {
        shape {
          dim {
          }
        }
      }
    }
  }
  attr {
    key: "use_locking"
    value {
      b: true
    }
  }
  attr {
    key: "validate_shape"
    value {
      b: true
    }
  }
}
node {
  name: "device_dummy_17/read"
  op: "Identity"
  input: "device_dummy_17"
  device: "/device:CPU:0"
  attr {
    key: "T"
    value {
      type: DT_FLOAT
    }
  }
  attr {
    key: "_class"
    value {
      list {
        s: "loc:@device_dummy_17"
      }
    }
  }
  attr {
    key: "_output_shapes"
    value {
      list {
        shape {
          dim {
          }
        }
      }
    }
  }
}
node {
  name: "device_dummy_18/Initializer/random_uniform/shape"
  op: "Const"
  attr {
    key: "_class"
    value {
      list {
        s: "loc:@device_dummy_18"
      }
    }
  }
  attr {
    key: "_output_shapes"
    value {
      list {
        shape {
          dim {
            size: 1
          }
        }
      }
    }
  }
  attr {
    key: "dtype"
    value {
      type: DT_INT32
    }
  }
  attr {
    key: "value"
    value {
      tensor {
        dtype: DT_INT32
        tensor_shape {
          dim {
            size: 1
          }
        }
        int_val: 0
      }
    }
  }
}
node {
  name: "device_dummy_18/Initializer/random_uniform/min"
  op: "Const"
  attr {
    key: "_class"
    value {
      list {
        s: "loc:@device_dummy_18"
      }
    }
  }
  attr {
    key: "_output_shapes"
    value {
      list {
        shape {
        }
      }
    }
  }
  attr {
    key: "dtype"
    value {
      type: DT_FLOAT
    }
  }
  attr {
    key: "value"
    value {
      tensor {
        dtype: DT_FLOAT
        tensor_shape {
        }
        float_val: -1.7320507764816284
      }
    }
  }
}
node {
  name: "device_dummy_18/Initializer/random_uniform/max"
  op: "Const"
  attr {
    key: "_class"
    value {
      list {
        s: "loc:@device_dummy_18"
      }
    }
  }
  attr {
    key: "_output_shapes"
    value {
      list {
        shape {
        }
      }
    }
  }
  attr {
    key: "dtype"
    value {
      type: DT_FLOAT
    }
  }
  attr {
    key: "value"
    value {
      tensor {
        dtype: DT_FLOAT
        tensor_shape {
        }
        float_val: 1.7320507764816284
      }
    }
  }
}
node {
  name: "device_dummy_18/Initializer/random_uniform/RandomUniform"
  op: "RandomUniform"
  input: "device_dummy_18/Initializer/random_uniform/shape"
  attr {
    key: "T"
    value {
      type: DT_INT32
    }
  }
  attr {
    key: "_class"
    value {
      list {
        s: "loc:@device_dummy_18"
      }
    }
  }
  attr {
    key: "_output_shapes"
    value {
      list {
        shape {
          dim {
          }
        }
      }
    }
  }
  attr {
    key: "dtype"
    value {
      type: DT_FLOAT
    }
  }
  attr {
    key: "seed"
    value {
      i: 0
    }
  }
  attr {
    key: "seed2"
    value {
      i: 0
    }
  }
}
node {
  name: "device_dummy_18/Initializer/random_uniform/sub"
  op: "Sub"
  input: "device_dummy_18/Initializer/random_uniform/max"
  input: "device_dummy_18/Initializer/random_uniform/min"
  attr {
    key: "T"
    value {
      type: DT_FLOAT
    }
  }
  attr {
    key: "_class"
    value {
      list {
        s: "loc:@device_dummy_18"
      }
    }
  }
  attr {
    key: "_output_shapes"
    value {
      list {
        shape {
        }
      }
    }
  }
}
node {
  name: "device_dummy_18/Initializer/random_uniform/mul"
  op: "Mul"
  input: "device_dummy_18/Initializer/random_uniform/RandomUniform"
  input: "device_dummy_18/Initializer/random_uniform/sub"
  attr {
    key: "T"
    value {
      type: DT_FLOAT
    }
  }
  attr {
    key: "_class"
    value {
      list {
        s: "loc:@device_dummy_18"
      }
    }
  }
  attr {
    key: "_output_shapes"
    value {
      list {
        shape {
          dim {
          }
        }
      }
    }
  }
}
node {
  name: "device_dummy_18/Initializer/random_uniform"
  op: "Add"
  input: "device_dummy_18/Initializer/random_uniform/mul"
  input: "device_dummy_18/Initializer/random_uniform/min"
  attr {
    key: "T"
    value {
      type: DT_FLOAT
    }
  }
  attr {
    key: "_class"
    value {
      list {
        s: "loc:@device_dummy_18"
      }
    }
  }
  attr {
    key: "_output_shapes"
    value {
      list {
        shape {
          dim {
          }
        }
      }
    }
  }
}
node {
  name: "device_dummy_18"
  op: "VariableV2"
  device: "/device:CPU:0"
  attr {
    key: "_class"
    value {
      list {
        s: "loc:@device_dummy_18"
      }
    }
  }
  attr {
    key: "_output_shapes"
    value {
      list {
        shape {
          dim {
          }
        }
      }
    }
  }
  attr {
    key: "container"
    value {
      s: ""
    }
  }
  attr {
    key: "dtype"
    value {
      type: DT_FLOAT
    }
  }
  attr {
    key: "shape"
    value {
      shape {
        dim {
        }
      }
    }
  }
  attr {
    key: "shared_name"
    value {
      s: ""
    }
  }
}
node {
  name: "device_dummy_18/Assign"
  op: "Assign"
  input: "device_dummy_18"
  input: "device_dummy_18/Initializer/random_uniform"
  device: "/device:CPU:0"
  attr {
    key: "T"
    value {
      type: DT_FLOAT
    }
  }
  attr {
    key: "_class"
    value {
      list {
        s: "loc:@device_dummy_18"
      }
    }
  }
  attr {
    key: "_output_shapes"
    value {
      list {
        shape {
          dim {
          }
        }
      }
    }
  }
  attr {
    key: "use_locking"
    value {
      b: true
    }
  }
  attr {
    key: "validate_shape"
    value {
      b: true
    }
  }
}
node {
  name: "device_dummy_18/read"
  op: "Identity"
  input: "device_dummy_18"
  device: "/device:CPU:0"
  attr {
    key: "T"
    value {
      type: DT_FLOAT
    }
  }
  attr {
    key: "_class"
    value {
      list {
        s: "loc:@device_dummy_18"
      }
    }
  }
  attr {
    key: "_output_shapes"
    value {
      list {
        shape {
          dim {
          }
        }
      }
    }
  }
}
node {
  name: "device_dummy_19/Initializer/random_uniform/shape"
  op: "Const"
  attr {
    key: "_class"
    value {
      list {
        s: "loc:@device_dummy_19"
      }
    }
  }
  attr {
    key: "_output_shapes"
    value {
      list {
        shape {
          dim {
            size: 1
          }
        }
      }
    }
  }
  attr {
    key: "dtype"
    value {
      type: DT_INT32
    }
  }
  attr {
    key: "value"
    value {
      tensor {
        dtype: DT_INT32
        tensor_shape {
          dim {
            size: 1
          }
        }
        int_val: 0
      }
    }
  }
}
node {
  name: "device_dummy_19/Initializer/random_uniform/min"
  op: "Const"
  attr {
    key: "_class"
    value {
      list {
        s: "loc:@device_dummy_19"
      }
    }
  }
  attr {
    key: "_output_shapes"
    value {
      list {
        shape {
        }
      }
    }
  }
  attr {
    key: "dtype"
    value {
      type: DT_FLOAT
    }
  }
  attr {
    key: "value"
    value {
      tensor {
        dtype: DT_FLOAT
        tensor_shape {
        }
        float_val: -1.7320507764816284
      }
    }
  }
}
node {
  name: "device_dummy_19/Initializer/random_uniform/max"
  op: "Const"
  attr {
    key: "_class"
    value {
      list {
        s: "loc:@device_dummy_19"
      }
    }
  }
  attr {
    key: "_output_shapes"
    value {
      list {
        shape {
        }
      }
    }
  }
  attr {
    key: "dtype"
    value {
      type: DT_FLOAT
    }
  }
  attr {
    key: "value"
    value {
      tensor {
        dtype: DT_FLOAT
        tensor_shape {
        }
        float_val: 1.7320507764816284
      }
    }
  }
}
node {
  name: "device_dummy_19/Initializer/random_uniform/RandomUniform"
  op: "RandomUniform"
  input: "device_dummy_19/Initializer/random_uniform/shape"
  attr {
    key: "T"
    value {
      type: DT_INT32
    }
  }
  attr {
    key: "_class"
    value {
      list {
        s: "loc:@device_dummy_19"
      }
    }
  }
  attr {
    key: "_output_shapes"
    value {
      list {
        shape {
          dim {
          }
        }
      }
    }
  }
  attr {
    key: "dtype"
    value {
      type: DT_FLOAT
    }
  }
  attr {
    key: "seed"
    value {
      i: 0
    }
  }
  attr {
    key: "seed2"
    value {
      i: 0
    }
  }
}
node {
  name: "device_dummy_19/Initializer/random_uniform/sub"
  op: "Sub"
  input: "device_dummy_19/Initializer/random_uniform/max"
  input: "device_dummy_19/Initializer/random_uniform/min"
  attr {
    key: "T"
    value {
      type: DT_FLOAT
    }
  }
  attr {
    key: "_class"
    value {
      list {
        s: "loc:@device_dummy_19"
      }
    }
  }
  attr {
    key: "_output_shapes"
    value {
      list {
        shape {
        }
      }
    }
  }
}
node {
  name: "device_dummy_19/Initializer/random_uniform/mul"
  op: "Mul"
  input: "device_dummy_19/Initializer/random_uniform/RandomUniform"
  input: "device_dummy_19/Initializer/random_uniform/sub"
  attr {
    key: "T"
    value {
      type: DT_FLOAT
    }
  }
  attr {
    key: "_class"
    value {
      list {
        s: "loc:@device_dummy_19"
      }
    }
  }
  attr {
    key: "_output_shapes"
    value {
      list {
        shape {
          dim {
          }
        }
      }
    }
  }
}
node {
  name: "device_dummy_19/Initializer/random_uniform"
  op: "Add"
  input: "device_dummy_19/Initializer/random_uniform/mul"
  input: "device_dummy_19/Initializer/random_uniform/min"
  attr {
    key: "T"
    value {
      type: DT_FLOAT
    }
  }
  attr {
    key: "_class"
    value {
      list {
        s: "loc:@device_dummy_19"
      }
    }
  }
  attr {
    key: "_output_shapes"
    value {
      list {
        shape {
          dim {
          }
        }
      }
    }
  }
}
node {
  name: "device_dummy_19"
  op: "VariableV2"
  device: "/device:CPU:0"
  attr {
    key: "_class"
    value {
      list {
        s: "loc:@device_dummy_19"
      }
    }
  }
  attr {
    key: "_output_shapes"
    value {
      list {
        shape {
          dim {
          }
        }
      }
    }
  }
  attr {
    key: "container"
    value {
      s: ""
    }
  }
  attr {
    key: "dtype"
    value {
      type: DT_FLOAT
    }
  }
  attr {
    key: "shape"
    value {
      shape {
        dim {
        }
      }
    }
  }
  attr {
    key: "shared_name"
    value {
      s: ""
    }
  }
}
node {
  name: "device_dummy_19/Assign"
  op: "Assign"
  input: "device_dummy_19"
  input: "device_dummy_19/Initializer/random_uniform"
  device: "/device:CPU:0"
  attr {
    key: "T"
    value {
      type: DT_FLOAT
    }
  }
  attr {
    key: "_class"
    value {
      list {
        s: "loc:@device_dummy_19"
      }
    }
  }
  attr {
    key: "_output_shapes"
    value {
      list {
        shape {
          dim {
          }
        }
      }
    }
  }
  attr {
    key: "use_locking"
    value {
      b: true
    }
  }
  attr {
    key: "validate_shape"
    value {
      b: true
    }
  }
}
node {
  name: "device_dummy_19/read"
  op: "Identity"
  input: "device_dummy_19"
  device: "/device:CPU:0"
  attr {
    key: "T"
    value {
      type: DT_FLOAT
    }
  }
  attr {
    key: "_class"
    value {
      list {
        s: "loc:@device_dummy_19"
      }
    }
  }
  attr {
    key: "_output_shapes"
    value {
      list {
        shape {
          dim {
          }
        }
      }
    }
  }
}
node {
  name: "device_dummy_20/Initializer/random_uniform/shape"
  op: "Const"
  attr {
    key: "_class"
    value {
      list {
        s: "loc:@device_dummy_20"
      }
    }
  }
  attr {
    key: "_output_shapes"
    value {
      list {
        shape {
          dim {
            size: 1
          }
        }
      }
    }
  }
  attr {
    key: "dtype"
    value {
      type: DT_INT32
    }
  }
  attr {
    key: "value"
    value {
      tensor {
        dtype: DT_INT32
        tensor_shape {
          dim {
            size: 1
          }
        }
        int_val: 0
      }
    }
  }
}
node {
  name: "device_dummy_20/Initializer/random_uniform/min"
  op: "Const"
  attr {
    key: "_class"
    value {
      list {
        s: "loc:@device_dummy_20"
      }
    }
  }
  attr {
    key: "_output_shapes"
    value {
      list {
        shape {
        }
      }
    }
  }
  attr {
    key: "dtype"
    value {
      type: DT_FLOAT
    }
  }
  attr {
    key: "value"
    value {
      tensor {
        dtype: DT_FLOAT
        tensor_shape {
        }
        float_val: -1.7320507764816284
      }
    }
  }
}
node {
  name: "device_dummy_20/Initializer/random_uniform/max"
  op: "Const"
  attr {
    key: "_class"
    value {
      list {
        s: "loc:@device_dummy_20"
      }
    }
  }
  attr {
    key: "_output_shapes"
    value {
      list {
        shape {
        }
      }
    }
  }
  attr {
    key: "dtype"
    value {
      type: DT_FLOAT
    }
  }
  attr {
    key: "value"
    value {
      tensor {
        dtype: DT_FLOAT
        tensor_shape {
        }
        float_val: 1.7320507764816284
      }
    }
  }
}
node {
  name: "device_dummy_20/Initializer/random_uniform/RandomUniform"
  op: "RandomUniform"
  input: "device_dummy_20/Initializer/random_uniform/shape"
  attr {
    key: "T"
    value {
      type: DT_INT32
    }
  }
  attr {
    key: "_class"
    value {
      list {
        s: "loc:@device_dummy_20"
      }
    }
  }
  attr {
    key: "_output_shapes"
    value {
      list {
        shape {
          dim {
          }
        }
      }
    }
  }
  attr {
    key: "dtype"
    value {
      type: DT_FLOAT
    }
  }
  attr {
    key: "seed"
    value {
      i: 0
    }
  }
  attr {
    key: "seed2"
    value {
      i: 0
    }
  }
}
node {
  name: "device_dummy_20/Initializer/random_uniform/sub"
  op: "Sub"
  input: "device_dummy_20/Initializer/random_uniform/max"
  input: "device_dummy_20/Initializer/random_uniform/min"
  attr {
    key: "T"
    value {
      type: DT_FLOAT
    }
  }
  attr {
    key: "_class"
    value {
      list {
        s: "loc:@device_dummy_20"
      }
    }
  }
  attr {
    key: "_output_shapes"
    value {
      list {
        shape {
        }
      }
    }
  }
}
node {
  name: "device_dummy_20/Initializer/random_uniform/mul"
  op: "Mul"
  input: "device_dummy_20/Initializer/random_uniform/RandomUniform"
  input: "device_dummy_20/Initializer/random_uniform/sub"
  attr {
    key: "T"
    value {
      type: DT_FLOAT
    }
  }
  attr {
    key: "_class"
    value {
      list {
        s: "loc:@device_dummy_20"
      }
    }
  }
  attr {
    key: "_output_shapes"
    value {
      list {
        shape {
          dim {
          }
        }
      }
    }
  }
}
node {
  name: "device_dummy_20/Initializer/random_uniform"
  op: "Add"
  input: "device_dummy_20/Initializer/random_uniform/mul"
  input: "device_dummy_20/Initializer/random_uniform/min"
  attr {
    key: "T"
    value {
      type: DT_FLOAT
    }
  }
  attr {
    key: "_class"
    value {
      list {
        s: "loc:@device_dummy_20"
      }
    }
  }
  attr {
    key: "_output_shapes"
    value {
      list {
        shape {
          dim {
          }
        }
      }
    }
  }
}
node {
  name: "device_dummy_20"
  op: "VariableV2"
  device: "/device:CPU:0"
  attr {
    key: "_class"
    value {
      list {
        s: "loc:@device_dummy_20"
      }
    }
  }
  attr {
    key: "_output_shapes"
    value {
      list {
        shape {
          dim {
          }
        }
      }
    }
  }
  attr {
    key: "container"
    value {
      s: ""
    }
  }
  attr {
    key: "dtype"
    value {
      type: DT_FLOAT
    }
  }
  attr {
    key: "shape"
    value {
      shape {
        dim {
        }
      }
    }
  }
  attr {
    key: "shared_name"
    value {
      s: ""
    }
  }
}
node {
  name: "device_dummy_20/Assign"
  op: "Assign"
  input: "device_dummy_20"
  input: "device_dummy_20/Initializer/random_uniform"
  device: "/device:CPU:0"
  attr {
    key: "T"
    value {
      type: DT_FLOAT
    }
  }
  attr {
    key: "_class"
    value {
      list {
        s: "loc:@device_dummy_20"
      }
    }
  }
  attr {
    key: "_output_shapes"
    value {
      list {
        shape {
          dim {
          }
        }
      }
    }
  }
  attr {
    key: "use_locking"
    value {
      b: true
    }
  }
  attr {
    key: "validate_shape"
    value {
      b: true
    }
  }
}
node {
  name: "device_dummy_20/read"
  op: "Identity"
  input: "device_dummy_20"
  device: "/device:CPU:0"
  attr {
    key: "T"
    value {
      type: DT_FLOAT
    }
  }
  attr {
    key: "_class"
    value {
      list {
        s: "loc:@device_dummy_20"
      }
    }
  }
  attr {
    key: "_output_shapes"
    value {
      list {
        shape {
          dim {
          }
        }
      }
    }
  }
}
node {
  name: "device_dummy_21/Initializer/random_uniform/shape"
  op: "Const"
  attr {
    key: "_class"
    value {
      list {
        s: "loc:@device_dummy_21"
      }
    }
  }
  attr {
    key: "_output_shapes"
    value {
      list {
        shape {
          dim {
            size: 1
          }
        }
      }
    }
  }
  attr {
    key: "dtype"
    value {
      type: DT_INT32
    }
  }
  attr {
    key: "value"
    value {
      tensor {
        dtype: DT_INT32
        tensor_shape {
          dim {
            size: 1
          }
        }
        int_val: 0
      }
    }
  }
}
node {
  name: "device_dummy_21/Initializer/random_uniform/min"
  op: "Const"
  attr {
    key: "_class"
    value {
      list {
        s: "loc:@device_dummy_21"
      }
    }
  }
  attr {
    key: "_output_shapes"
    value {
      list {
        shape {
        }
      }
    }
  }
  attr {
    key: "dtype"
    value {
      type: DT_FLOAT
    }
  }
  attr {
    key: "value"
    value {
      tensor {
        dtype: DT_FLOAT
        tensor_shape {
        }
        float_val: -1.7320507764816284
      }
    }
  }
}
node {
  name: "device_dummy_21/Initializer/random_uniform/max"
  op: "Const"
  attr {
    key: "_class"
    value {
      list {
        s: "loc:@device_dummy_21"
      }
    }
  }
  attr {
    key: "_output_shapes"
    value {
      list {
        shape {
        }
      }
    }
  }
  attr {
    key: "dtype"
    value {
      type: DT_FLOAT
    }
  }
  attr {
    key: "value"
    value {
      tensor {
        dtype: DT_FLOAT
        tensor_shape {
        }
        float_val: 1.7320507764816284
      }
    }
  }
}
node {
  name: "device_dummy_21/Initializer/random_uniform/RandomUniform"
  op: "RandomUniform"
  input: "device_dummy_21/Initializer/random_uniform/shape"
  attr {
    key: "T"
    value {
      type: DT_INT32
    }
  }
  attr {
    key: "_class"
    value {
      list {
        s: "loc:@device_dummy_21"
      }
    }
  }
  attr {
    key: "_output_shapes"
    value {
      list {
        shape {
          dim {
          }
        }
      }
    }
  }
  attr {
    key: "dtype"
    value {
      type: DT_FLOAT
    }
  }
  attr {
    key: "seed"
    value {
      i: 0
    }
  }
  attr {
    key: "seed2"
    value {
      i: 0
    }
  }
}
node {
  name: "device_dummy_21/Initializer/random_uniform/sub"
  op: "Sub"
  input: "device_dummy_21/Initializer/random_uniform/max"
  input: "device_dummy_21/Initializer/random_uniform/min"
  attr {
    key: "T"
    value {
      type: DT_FLOAT
    }
  }
  attr {
    key: "_class"
    value {
      list {
        s: "loc:@device_dummy_21"
      }
    }
  }
  attr {
    key: "_output_shapes"
    value {
      list {
        shape {
        }
      }
    }
  }
}
node {
  name: "device_dummy_21/Initializer/random_uniform/mul"
  op: "Mul"
  input: "device_dummy_21/Initializer/random_uniform/RandomUniform"
  input: "device_dummy_21/Initializer/random_uniform/sub"
  attr {
    key: "T"
    value {
      type: DT_FLOAT
    }
  }
  attr {
    key: "_class"
    value {
      list {
        s: "loc:@device_dummy_21"
      }
    }
  }
  attr {
    key: "_output_shapes"
    value {
      list {
        shape {
          dim {
          }
        }
      }
    }
  }
}
node {
  name: "device_dummy_21/Initializer/random_uniform"
  op: "Add"
  input: "device_dummy_21/Initializer/random_uniform/mul"
  input: "device_dummy_21/Initializer/random_uniform/min"
  attr {
    key: "T"
    value {
      type: DT_FLOAT
    }
  }
  attr {
    key: "_class"
    value {
      list {
        s: "loc:@device_dummy_21"
      }
    }
  }
  attr {
    key: "_output_shapes"
    value {
      list {
        shape {
          dim {
          }
        }
      }
    }
  }
}
node {
  name: "device_dummy_21"
  op: "VariableV2"
  device: "/device:CPU:0"
  attr {
    key: "_class"
    value {
      list {
        s: "loc:@device_dummy_21"
      }
    }
  }
  attr {
    key: "_output_shapes"
    value {
      list {
        shape {
          dim {
          }
        }
      }
    }
  }
  attr {
    key: "container"
    value {
      s: ""
    }
  }
  attr {
    key: "dtype"
    value {
      type: DT_FLOAT
    }
  }
  attr {
    key: "shape"
    value {
      shape {
        dim {
        }
      }
    }
  }
  attr {
    key: "shared_name"
    value {
      s: ""
    }
  }
}
node {
  name: "device_dummy_21/Assign"
  op: "Assign"
  input: "device_dummy_21"
  input: "device_dummy_21/Initializer/random_uniform"
  device: "/device:CPU:0"
  attr {
    key: "T"
    value {
      type: DT_FLOAT
    }
  }
  attr {
    key: "_class"
    value {
      list {
        s: "loc:@device_dummy_21"
      }
    }
  }
  attr {
    key: "_output_shapes"
    value {
      list {
        shape {
          dim {
          }
        }
      }
    }
  }
  attr {
    key: "use_locking"
    value {
      b: true
    }
  }
  attr {
    key: "validate_shape"
    value {
      b: true
    }
  }
}
node {
  name: "device_dummy_21/read"
  op: "Identity"
  input: "device_dummy_21"
  device: "/device:CPU:0"
  attr {
    key: "T"
    value {
      type: DT_FLOAT
    }
  }
  attr {
    key: "_class"
    value {
      list {
        s: "loc:@device_dummy_21"
      }
    }
  }
  attr {
    key: "_output_shapes"
    value {
      list {
        shape {
          dim {
          }
        }
      }
    }
  }
}
node {
  name: "device_dummy_22/Initializer/random_uniform/shape"
  op: "Const"
  attr {
    key: "_class"
    value {
      list {
        s: "loc:@device_dummy_22"
      }
    }
  }
  attr {
    key: "_output_shapes"
    value {
      list {
        shape {
          dim {
            size: 1
          }
        }
      }
    }
  }
  attr {
    key: "dtype"
    value {
      type: DT_INT32
    }
  }
  attr {
    key: "value"
    value {
      tensor {
        dtype: DT_INT32
        tensor_shape {
          dim {
            size: 1
          }
        }
        int_val: 0
      }
    }
  }
}
node {
  name: "device_dummy_22/Initializer/random_uniform/min"
  op: "Const"
  attr {
    key: "_class"
    value {
      list {
        s: "loc:@device_dummy_22"
      }
    }
  }
  attr {
    key: "_output_shapes"
    value {
      list {
        shape {
        }
      }
    }
  }
  attr {
    key: "dtype"
    value {
      type: DT_FLOAT
    }
  }
  attr {
    key: "value"
    value {
      tensor {
        dtype: DT_FLOAT
        tensor_shape {
        }
        float_val: -1.7320507764816284
      }
    }
  }
}
node {
  name: "device_dummy_22/Initializer/random_uniform/max"
  op: "Const"
  attr {
    key: "_class"
    value {
      list {
        s: "loc:@device_dummy_22"
      }
    }
  }
  attr {
    key: "_output_shapes"
    value {
      list {
        shape {
        }
      }
    }
  }
  attr {
    key: "dtype"
    value {
      type: DT_FLOAT
    }
  }
  attr {
    key: "value"
    value {
      tensor {
        dtype: DT_FLOAT
        tensor_shape {
        }
        float_val: 1.7320507764816284
      }
    }
  }
}
node {
  name: "device_dummy_22/Initializer/random_uniform/RandomUniform"
  op: "RandomUniform"
  input: "device_dummy_22/Initializer/random_uniform/shape"
  attr {
    key: "T"
    value {
      type: DT_INT32
    }
  }
  attr {
    key: "_class"
    value {
      list {
        s: "loc:@device_dummy_22"
      }
    }
  }
  attr {
    key: "_output_shapes"
    value {
      list {
        shape {
          dim {
          }
        }
      }
    }
  }
  attr {
    key: "dtype"
    value {
      type: DT_FLOAT
    }
  }
  attr {
    key: "seed"
    value {
      i: 0
    }
  }
  attr {
    key: "seed2"
    value {
      i: 0
    }
  }
}
node {
  name: "device_dummy_22/Initializer/random_uniform/sub"
  op: "Sub"
  input: "device_dummy_22/Initializer/random_uniform/max"
  input: "device_dummy_22/Initializer/random_uniform/min"
  attr {
    key: "T"
    value {
      type: DT_FLOAT
    }
  }
  attr {
    key: "_class"
    value {
      list {
        s: "loc:@device_dummy_22"
      }
    }
  }
  attr {
    key: "_output_shapes"
    value {
      list {
        shape {
        }
      }
    }
  }
}
node {
  name: "device_dummy_22/Initializer/random_uniform/mul"
  op: "Mul"
  input: "device_dummy_22/Initializer/random_uniform/RandomUniform"
  input: "device_dummy_22/Initializer/random_uniform/sub"
  attr {
    key: "T"
    value {
      type: DT_FLOAT
    }
  }
  attr {
    key: "_class"
    value {
      list {
        s: "loc:@device_dummy_22"
      }
    }
  }
  attr {
    key: "_output_shapes"
    value {
      list {
        shape {
          dim {
          }
        }
      }
    }
  }
}
node {
  name: "device_dummy_22/Initializer/random_uniform"
  op: "Add"
  input: "device_dummy_22/Initializer/random_uniform/mul"
  input: "device_dummy_22/Initializer/random_uniform/min"
  attr {
    key: "T"
    value {
      type: DT_FLOAT
    }
  }
  attr {
    key: "_class"
    value {
      list {
        s: "loc:@device_dummy_22"
      }
    }
  }
  attr {
    key: "_output_shapes"
    value {
      list {
        shape {
          dim {
          }
        }
      }
    }
  }
}
node {
  name: "device_dummy_22"
  op: "VariableV2"
  device: "/device:CPU:0"
  attr {
    key: "_class"
    value {
      list {
        s: "loc:@device_dummy_22"
      }
    }
  }
  attr {
    key: "_output_shapes"
    value {
      list {
        shape {
          dim {
          }
        }
      }
    }
  }
  attr {
    key: "container"
    value {
      s: ""
    }
  }
  attr {
    key: "dtype"
    value {
      type: DT_FLOAT
    }
  }
  attr {
    key: "shape"
    value {
      shape {
        dim {
        }
      }
    }
  }
  attr {
    key: "shared_name"
    value {
      s: ""
    }
  }
}
node {
  name: "device_dummy_22/Assign"
  op: "Assign"
  input: "device_dummy_22"
  input: "device_dummy_22/Initializer/random_uniform"
  device: "/device:CPU:0"
  attr {
    key: "T"
    value {
      type: DT_FLOAT
    }
  }
  attr {
    key: "_class"
    value {
      list {
        s: "loc:@device_dummy_22"
      }
    }
  }
  attr {
    key: "_output_shapes"
    value {
      list {
        shape {
          dim {
          }
        }
      }
    }
  }
  attr {
    key: "use_locking"
    value {
      b: true
    }
  }
  attr {
    key: "validate_shape"
    value {
      b: true
    }
  }
}
node {
  name: "device_dummy_22/read"
  op: "Identity"
  input: "device_dummy_22"
  device: "/device:CPU:0"
  attr {
    key: "T"
    value {
      type: DT_FLOAT
    }
  }
  attr {
    key: "_class"
    value {
      list {
        s: "loc:@device_dummy_22"
      }
    }
  }
  attr {
    key: "_output_shapes"
    value {
      list {
        shape {
          dim {
          }
        }
      }
    }
  }
}
node {
  name: "device_dummy_23/Initializer/random_uniform/shape"
  op: "Const"
  attr {
    key: "_class"
    value {
      list {
        s: "loc:@device_dummy_23"
      }
    }
  }
  attr {
    key: "_output_shapes"
    value {
      list {
        shape {
          dim {
            size: 1
          }
        }
      }
    }
  }
  attr {
    key: "dtype"
    value {
      type: DT_INT32
    }
  }
  attr {
    key: "value"
    value {
      tensor {
        dtype: DT_INT32
        tensor_shape {
          dim {
            size: 1
          }
        }
        int_val: 0
      }
    }
  }
}
node {
  name: "device_dummy_23/Initializer/random_uniform/min"
  op: "Const"
  attr {
    key: "_class"
    value {
      list {
        s: "loc:@device_dummy_23"
      }
    }
  }
  attr {
    key: "_output_shapes"
    value {
      list {
        shape {
        }
      }
    }
  }
  attr {
    key: "dtype"
    value {
      type: DT_FLOAT
    }
  }
  attr {
    key: "value"
    value {
      tensor {
        dtype: DT_FLOAT
        tensor_shape {
        }
        float_val: -1.7320507764816284
      }
    }
  }
}
node {
  name: "device_dummy_23/Initializer/random_uniform/max"
  op: "Const"
  attr {
    key: "_class"
    value {
      list {
        s: "loc:@device_dummy_23"
      }
    }
  }
  attr {
    key: "_output_shapes"
    value {
      list {
        shape {
        }
      }
    }
  }
  attr {
    key: "dtype"
    value {
      type: DT_FLOAT
    }
  }
  attr {
    key: "value"
    value {
      tensor {
        dtype: DT_FLOAT
        tensor_shape {
        }
        float_val: 1.7320507764816284
      }
    }
  }
}
node {
  name: "device_dummy_23/Initializer/random_uniform/RandomUniform"
  op: "RandomUniform"
  input: "device_dummy_23/Initializer/random_uniform/shape"
  attr {
    key: "T"
    value {
      type: DT_INT32
    }
  }
  attr {
    key: "_class"
    value {
      list {
        s: "loc:@device_dummy_23"
      }
    }
  }
  attr {
    key: "_output_shapes"
    value {
      list {
        shape {
          dim {
          }
        }
      }
    }
  }
  attr {
    key: "dtype"
    value {
      type: DT_FLOAT
    }
  }
  attr {
    key: "seed"
    value {
      i: 0
    }
  }
  attr {
    key: "seed2"
    value {
      i: 0
    }
  }
}
node {
  name: "device_dummy_23/Initializer/random_uniform/sub"
  op: "Sub"
  input: "device_dummy_23/Initializer/random_uniform/max"
  input: "device_dummy_23/Initializer/random_uniform/min"
  attr {
    key: "T"
    value {
      type: DT_FLOAT
    }
  }
  attr {
    key: "_class"
    value {
      list {
        s: "loc:@device_dummy_23"
      }
    }
  }
  attr {
    key: "_output_shapes"
    value {
      list {
        shape {
        }
      }
    }
  }
}
node {
  name: "device_dummy_23/Initializer/random_uniform/mul"
  op: "Mul"
  input: "device_dummy_23/Initializer/random_uniform/RandomUniform"
  input: "device_dummy_23/Initializer/random_uniform/sub"
  attr {
    key: "T"
    value {
      type: DT_FLOAT
    }
  }
  attr {
    key: "_class"
    value {
      list {
        s: "loc:@device_dummy_23"
      }
    }
  }
  attr {
    key: "_output_shapes"
    value {
      list {
        shape {
          dim {
          }
        }
      }
    }
  }
}
node {
  name: "device_dummy_23/Initializer/random_uniform"
  op: "Add"
  input: "device_dummy_23/Initializer/random_uniform/mul"
  input: "device_dummy_23/Initializer/random_uniform/min"
  attr {
    key: "T"
    value {
      type: DT_FLOAT
    }
  }
  attr {
    key: "_class"
    value {
      list {
        s: "loc:@device_dummy_23"
      }
    }
  }
  attr {
    key: "_output_shapes"
    value {
      list {
        shape {
          dim {
          }
        }
      }
    }
  }
}
node {
  name: "device_dummy_23"
  op: "VariableV2"
  device: "/device:CPU:0"
  attr {
    key: "_class"
    value {
      list {
        s: "loc:@device_dummy_23"
      }
    }
  }
  attr {
    key: "_output_shapes"
    value {
      list {
        shape {
          dim {
          }
        }
      }
    }
  }
  attr {
    key: "container"
    value {
      s: ""
    }
  }
  attr {
    key: "dtype"
    value {
      type: DT_FLOAT
    }
  }
  attr {
    key: "shape"
    value {
      shape {
        dim {
        }
      }
    }
  }
  attr {
    key: "shared_name"
    value {
      s: ""
    }
  }
}
node {
  name: "device_dummy_23/Assign"
  op: "Assign"
  input: "device_dummy_23"
  input: "device_dummy_23/Initializer/random_uniform"
  device: "/device:CPU:0"
  attr {
    key: "T"
    value {
      type: DT_FLOAT
    }
  }
  attr {
    key: "_class"
    value {
      list {
        s: "loc:@device_dummy_23"
      }
    }
  }
  attr {
    key: "_output_shapes"
    value {
      list {
        shape {
          dim {
          }
        }
      }
    }
  }
  attr {
    key: "use_locking"
    value {
      b: true
    }
  }
  attr {
    key: "validate_shape"
    value {
      b: true
    }
  }
}
node {
  name: "device_dummy_23/read"
  op: "Identity"
  input: "device_dummy_23"
  device: "/device:CPU:0"
  attr {
    key: "T"
    value {
      type: DT_FLOAT
    }
  }
  attr {
    key: "_class"
    value {
      list {
        s: "loc:@device_dummy_23"
      }
    }
  }
  attr {
    key: "_output_shapes"
    value {
      list {
        shape {
          dim {
          }
        }
      }
    }
  }
}
node {
  name: "device_dummy_24/Initializer/random_uniform/shape"
  op: "Const"
  attr {
    key: "_class"
    value {
      list {
        s: "loc:@device_dummy_24"
      }
    }
  }
  attr {
    key: "_output_shapes"
    value {
      list {
        shape {
          dim {
            size: 1
          }
        }
      }
    }
  }
  attr {
    key: "dtype"
    value {
      type: DT_INT32
    }
  }
  attr {
    key: "value"
    value {
      tensor {
        dtype: DT_INT32
        tensor_shape {
          dim {
            size: 1
          }
        }
        int_val: 0
      }
    }
  }
}
node {
  name: "device_dummy_24/Initializer/random_uniform/min"
  op: "Const"
  attr {
    key: "_class"
    value {
      list {
        s: "loc:@device_dummy_24"
      }
    }
  }
  attr {
    key: "_output_shapes"
    value {
      list {
        shape {
        }
      }
    }
  }
  attr {
    key: "dtype"
    value {
      type: DT_FLOAT
    }
  }
  attr {
    key: "value"
    value {
      tensor {
        dtype: DT_FLOAT
        tensor_shape {
        }
        float_val: -1.7320507764816284
      }
    }
  }
}
node {
  name: "device_dummy_24/Initializer/random_uniform/max"
  op: "Const"
  attr {
    key: "_class"
    value {
      list {
        s: "loc:@device_dummy_24"
      }
    }
  }
  attr {
    key: "_output_shapes"
    value {
      list {
        shape {
        }
      }
    }
  }
  attr {
    key: "dtype"
    value {
      type: DT_FLOAT
    }
  }
  attr {
    key: "value"
    value {
      tensor {
        dtype: DT_FLOAT
        tensor_shape {
        }
        float_val: 1.7320507764816284
      }
    }
  }
}
node {
  name: "device_dummy_24/Initializer/random_uniform/RandomUniform"
  op: "RandomUniform"
  input: "device_dummy_24/Initializer/random_uniform/shape"
  attr {
    key: "T"
    value {
      type: DT_INT32
    }
  }
  attr {
    key: "_class"
    value {
      list {
        s: "loc:@device_dummy_24"
      }
    }
  }
  attr {
    key: "_output_shapes"
    value {
      list {
        shape {
          dim {
          }
        }
      }
    }
  }
  attr {
    key: "dtype"
    value {
      type: DT_FLOAT
    }
  }
  attr {
    key: "seed"
    value {
      i: 0
    }
  }
  attr {
    key: "seed2"
    value {
      i: 0
    }
  }
}
node {
  name: "device_dummy_24/Initializer/random_uniform/sub"
  op: "Sub"
  input: "device_dummy_24/Initializer/random_uniform/max"
  input: "device_dummy_24/Initializer/random_uniform/min"
  attr {
    key: "T"
    value {
      type: DT_FLOAT
    }
  }
  attr {
    key: "_class"
    value {
      list {
        s: "loc:@device_dummy_24"
      }
    }
  }
  attr {
    key: "_output_shapes"
    value {
      list {
        shape {
        }
      }
    }
  }
}
node {
  name: "device_dummy_24/Initializer/random_uniform/mul"
  op: "Mul"
  input: "device_dummy_24/Initializer/random_uniform/RandomUniform"
  input: "device_dummy_24/Initializer/random_uniform/sub"
  attr {
    key: "T"
    value {
      type: DT_FLOAT
    }
  }
  attr {
    key: "_class"
    value {
      list {
        s: "loc:@device_dummy_24"
      }
    }
  }
  attr {
    key: "_output_shapes"
    value {
      list {
        shape {
          dim {
          }
        }
      }
    }
  }
}
node {
  name: "device_dummy_24/Initializer/random_uniform"
  op: "Add"
  input: "device_dummy_24/Initializer/random_uniform/mul"
  input: "device_dummy_24/Initializer/random_uniform/min"
  attr {
    key: "T"
    value {
      type: DT_FLOAT
    }
  }
  attr {
    key: "_class"
    value {
      list {
        s: "loc:@device_dummy_24"
      }
    }
  }
  attr {
    key: "_output_shapes"
    value {
      list {
        shape {
          dim {
          }
        }
      }
    }
  }
}
node {
  name: "device_dummy_24"
  op: "VariableV2"
  device: "/device:CPU:0"
  attr {
    key: "_class"
    value {
      list {
        s: "loc:@device_dummy_24"
      }
    }
  }
  attr {
    key: "_output_shapes"
    value {
      list {
        shape {
          dim {
          }
        }
      }
    }
  }
  attr {
    key: "container"
    value {
      s: ""
    }
  }
  attr {
    key: "dtype"
    value {
      type: DT_FLOAT
    }
  }
  attr {
    key: "shape"
    value {
      shape {
        dim {
        }
      }
    }
  }
  attr {
    key: "shared_name"
    value {
      s: ""
    }
  }
}
node {
  name: "device_dummy_24/Assign"
  op: "Assign"
  input: "device_dummy_24"
  input: "device_dummy_24/Initializer/random_uniform"
  device: "/device:CPU:0"
  attr {
    key: "T"
    value {
      type: DT_FLOAT
    }
  }
  attr {
    key: "_class"
    value {
      list {
        s: "loc:@device_dummy_24"
      }
    }
  }
  attr {
    key: "_output_shapes"
    value {
      list {
        shape {
          dim {
          }
        }
      }
    }
  }
  attr {
    key: "use_locking"
    value {
      b: true
    }
  }
  attr {
    key: "validate_shape"
    value {
      b: true
    }
  }
}
node {
  name: "device_dummy_24/read"
  op: "Identity"
  input: "device_dummy_24"
  device: "/device:CPU:0"
  attr {
    key: "T"
    value {
      type: DT_FLOAT
    }
  }
  attr {
    key: "_class"
    value {
      list {
        s: "loc:@device_dummy_24"
      }
    }
  }
  attr {
    key: "_output_shapes"
    value {
      list {
        shape {
          dim {
          }
        }
      }
    }
  }
}
node {
  name: "device_dummy_25/Initializer/random_uniform/shape"
  op: "Const"
  attr {
    key: "_class"
    value {
      list {
        s: "loc:@device_dummy_25"
      }
    }
  }
  attr {
    key: "_output_shapes"
    value {
      list {
        shape {
          dim {
            size: 1
          }
        }
      }
    }
  }
  attr {
    key: "dtype"
    value {
      type: DT_INT32
    }
  }
  attr {
    key: "value"
    value {
      tensor {
        dtype: DT_INT32
        tensor_shape {
          dim {
            size: 1
          }
        }
        int_val: 0
      }
    }
  }
}
node {
  name: "device_dummy_25/Initializer/random_uniform/min"
  op: "Const"
  attr {
    key: "_class"
    value {
      list {
        s: "loc:@device_dummy_25"
      }
    }
  }
  attr {
    key: "_output_shapes"
    value {
      list {
        shape {
        }
      }
    }
  }
  attr {
    key: "dtype"
    value {
      type: DT_FLOAT
    }
  }
  attr {
    key: "value"
    value {
      tensor {
        dtype: DT_FLOAT
        tensor_shape {
        }
        float_val: -1.7320507764816284
      }
    }
  }
}
node {
  name: "device_dummy_25/Initializer/random_uniform/max"
  op: "Const"
  attr {
    key: "_class"
    value {
      list {
        s: "loc:@device_dummy_25"
      }
    }
  }
  attr {
    key: "_output_shapes"
    value {
      list {
        shape {
        }
      }
    }
  }
  attr {
    key: "dtype"
    value {
      type: DT_FLOAT
    }
  }
  attr {
    key: "value"
    value {
      tensor {
        dtype: DT_FLOAT
        tensor_shape {
        }
        float_val: 1.7320507764816284
      }
    }
  }
}
node {
  name: "device_dummy_25/Initializer/random_uniform/RandomUniform"
  op: "RandomUniform"
  input: "device_dummy_25/Initializer/random_uniform/shape"
  attr {
    key: "T"
    value {
      type: DT_INT32
    }
  }
  attr {
    key: "_class"
    value {
      list {
        s: "loc:@device_dummy_25"
      }
    }
  }
  attr {
    key: "_output_shapes"
    value {
      list {
        shape {
          dim {
          }
        }
      }
    }
  }
  attr {
    key: "dtype"
    value {
      type: DT_FLOAT
    }
  }
  attr {
    key: "seed"
    value {
      i: 0
    }
  }
  attr {
    key: "seed2"
    value {
      i: 0
    }
  }
}
node {
  name: "device_dummy_25/Initializer/random_uniform/sub"
  op: "Sub"
  input: "device_dummy_25/Initializer/random_uniform/max"
  input: "device_dummy_25/Initializer/random_uniform/min"
  attr {
    key: "T"
    value {
      type: DT_FLOAT
    }
  }
  attr {
    key: "_class"
    value {
      list {
        s: "loc:@device_dummy_25"
      }
    }
  }
  attr {
    key: "_output_shapes"
    value {
      list {
        shape {
        }
      }
    }
  }
}
node {
  name: "device_dummy_25/Initializer/random_uniform/mul"
  op: "Mul"
  input: "device_dummy_25/Initializer/random_uniform/RandomUniform"
  input: "device_dummy_25/Initializer/random_uniform/sub"
  attr {
    key: "T"
    value {
      type: DT_FLOAT
    }
  }
  attr {
    key: "_class"
    value {
      list {
        s: "loc:@device_dummy_25"
      }
    }
  }
  attr {
    key: "_output_shapes"
    value {
      list {
        shape {
          dim {
          }
        }
      }
    }
  }
}
node {
  name: "device_dummy_25/Initializer/random_uniform"
  op: "Add"
  input: "device_dummy_25/Initializer/random_uniform/mul"
  input: "device_dummy_25/Initializer/random_uniform/min"
  attr {
    key: "T"
    value {
      type: DT_FLOAT
    }
  }
  attr {
    key: "_class"
    value {
      list {
        s: "loc:@device_dummy_25"
      }
    }
  }
  attr {
    key: "_output_shapes"
    value {
      list {
        shape {
          dim {
          }
        }
      }
    }
  }
}
node {
  name: "device_dummy_25"
  op: "VariableV2"
  device: "/device:CPU:0"
  attr {
    key: "_class"
    value {
      list {
        s: "loc:@device_dummy_25"
      }
    }
  }
  attr {
    key: "_output_shapes"
    value {
      list {
        shape {
          dim {
          }
        }
      }
    }
  }
  attr {
    key: "container"
    value {
      s: ""
    }
  }
  attr {
    key: "dtype"
    value {
      type: DT_FLOAT
    }
  }
  attr {
    key: "shape"
    value {
      shape {
        dim {
        }
      }
    }
  }
  attr {
    key: "shared_name"
    value {
      s: ""
    }
  }
}
node {
  name: "device_dummy_25/Assign"
  op: "Assign"
  input: "device_dummy_25"
  input: "device_dummy_25/Initializer/random_uniform"
  device: "/device:CPU:0"
  attr {
    key: "T"
    value {
      type: DT_FLOAT
    }
  }
  attr {
    key: "_class"
    value {
      list {
        s: "loc:@device_dummy_25"
      }
    }
  }
  attr {
    key: "_output_shapes"
    value {
      list {
        shape {
          dim {
          }
        }
      }
    }
  }
  attr {
    key: "use_locking"
    value {
      b: true
    }
  }
  attr {
    key: "validate_shape"
    value {
      b: true
    }
  }
}
node {
  name: "device_dummy_25/read"
  op: "Identity"
  input: "device_dummy_25"
  device: "/device:CPU:0"
  attr {
    key: "T"
    value {
      type: DT_FLOAT
    }
  }
  attr {
    key: "_class"
    value {
      list {
        s: "loc:@device_dummy_25"
      }
    }
  }
  attr {
    key: "_output_shapes"
    value {
      list {
        shape {
          dim {
          }
        }
      }
    }
  }
}
node {
  name: "device_dummy_26/Initializer/random_uniform/shape"
  op: "Const"
  attr {
    key: "_class"
    value {
      list {
        s: "loc:@device_dummy_26"
      }
    }
  }
  attr {
    key: "_output_shapes"
    value {
      list {
        shape {
          dim {
            size: 1
          }
        }
      }
    }
  }
  attr {
    key: "dtype"
    value {
      type: DT_INT32
    }
  }
  attr {
    key: "value"
    value {
      tensor {
        dtype: DT_INT32
        tensor_shape {
          dim {
            size: 1
          }
        }
        int_val: 0
      }
    }
  }
}
node {
  name: "device_dummy_26/Initializer/random_uniform/min"
  op: "Const"
  attr {
    key: "_class"
    value {
      list {
        s: "loc:@device_dummy_26"
      }
    }
  }
  attr {
    key: "_output_shapes"
    value {
      list {
        shape {
        }
      }
    }
  }
  attr {
    key: "dtype"
    value {
      type: DT_FLOAT
    }
  }
  attr {
    key: "value"
    value {
      tensor {
        dtype: DT_FLOAT
        tensor_shape {
        }
        float_val: -1.7320507764816284
      }
    }
  }
}
node {
  name: "device_dummy_26/Initializer/random_uniform/max"
  op: "Const"
  attr {
    key: "_class"
    value {
      list {
        s: "loc:@device_dummy_26"
      }
    }
  }
  attr {
    key: "_output_shapes"
    value {
      list {
        shape {
        }
      }
    }
  }
  attr {
    key: "dtype"
    value {
      type: DT_FLOAT
    }
  }
  attr {
    key: "value"
    value {
      tensor {
        dtype: DT_FLOAT
        tensor_shape {
        }
        float_val: 1.7320507764816284
      }
    }
  }
}
node {
  name: "device_dummy_26/Initializer/random_uniform/RandomUniform"
  op: "RandomUniform"
  input: "device_dummy_26/Initializer/random_uniform/shape"
  attr {
    key: "T"
    value {
      type: DT_INT32
    }
  }
  attr {
    key: "_class"
    value {
      list {
        s: "loc:@device_dummy_26"
      }
    }
  }
  attr {
    key: "_output_shapes"
    value {
      list {
        shape {
          dim {
          }
        }
      }
    }
  }
  attr {
    key: "dtype"
    value {
      type: DT_FLOAT
    }
  }
  attr {
    key: "seed"
    value {
      i: 0
    }
  }
  attr {
    key: "seed2"
    value {
      i: 0
    }
  }
}
node {
  name: "device_dummy_26/Initializer/random_uniform/sub"
  op: "Sub"
  input: "device_dummy_26/Initializer/random_uniform/max"
  input: "device_dummy_26/Initializer/random_uniform/min"
  attr {
    key: "T"
    value {
      type: DT_FLOAT
    }
  }
  attr {
    key: "_class"
    value {
      list {
        s: "loc:@device_dummy_26"
      }
    }
  }
  attr {
    key: "_output_shapes"
    value {
      list {
        shape {
        }
      }
    }
  }
}
node {
  name: "device_dummy_26/Initializer/random_uniform/mul"
  op: "Mul"
  input: "device_dummy_26/Initializer/random_uniform/RandomUniform"
…
          dim {
          }
        }
      }
    }
  }
  attr {
    key: "use_locking"
    value {
      b: true
    }
  }
  attr {
    key: "validate_shape"
    value {
      b: true
    }
  }
}
node {
  name: "save/Assign_43"
  op: "Assign"
  input: "device_dummy_47"
  input: "save/RestoreV2_1:42"
  device: "/device:CPU:0"
  attr {
    key: "T"
    value {
      type: DT_FLOAT
    }
  }
  attr {
    key: "_class"
    value {
      list {
        s: "loc:@device_dummy_47"
      }
    }
  }
  attr {
    key: "_output_shapes"
    value {
      list {
        shape {
          dim {
          }
        }
      }
    }
  }
  attr {
    key: "use_locking"
    value {
      b: true
    }
  }
  attr {
    key: "validate_shape"
    value {
      b: true
    }
  }
}
node {
  name: "save/Assign_44"
  op: "Assign"
  input: "device_dummy_48"
  input: "save/RestoreV2_1:43"
  device: "/device:CPU:0"
  attr {
    key: "T"
    value {
      type: DT_FLOAT
    }
  }
  attr {
    key: "_class"
    value {
      list {
        s: "loc:@device_dummy_48"
      }
    }
  }
  attr {
    key: "_output_shapes"
    value {
      list {
        shape {
          dim {
          }
        }
      }
    }
  }
  attr {
    key: "use_locking"
    value {
      b: true
    }
  }
  attr {
    key: "validate_shape"
    value {
      b: true
    }
  }
}
node {
  name: "save/Assign_45"
  op: "Assign"
  input: "device_dummy_49"
  input: "save/RestoreV2_1:44"
  device: "/device:CPU:0"
  attr {
    key: "T"
    value {
      type: DT_FLOAT
    }
  }
  attr {
    key: "_class"
    value {
      list {
        s: "loc:@device_dummy_49"
      }
    }
  }
  attr {
    key: "_output_shapes"
    value {
      list {
        shape {
          dim {
          }
        }
      }
    }
  }
  attr {
    key: "use_locking"
    value {
      b: true
    }
  }
  attr {
    key: "validate_shape"
    value {
      b: true
    }
  }
}
node {
  name: "save/Assign_46"
  op: "Assign"
  input: "device_dummy_5"
  input: "save/RestoreV2_1:45"
  device: "/device:CPU:0"
  attr {
    key: "T"
    value {
      type: DT_FLOAT
    }
  }
  attr {
    key: "_class"
    value {
      list {
        s: "loc:@device_dummy_5"
      }
    }
  }
  attr {
    key: "_output_shapes"
    value {
      list {
        shape {
          dim {
          }
        }
      }
    }
  }
  attr {
    key: "use_locking"
    value {
      b: true
    }
  }
  attr {
    key: "validate_shape"
    value {
      b: true
    }
  }
}
node {
  name: "save/Assign_47"
  op: "Assign"
  input: "device_dummy_6"
  input: "save/RestoreV2_1:46"
  device: "/device:CPU:0"
  attr {
    key: "T"
    value {
      type: DT_FLOAT
    }
  }
  attr {
    key: "_class"
    value {
      list {
        s: "loc:@device_dummy_6"
      }
    }
  }
  attr {
    key: "_output_shapes"
    value {
      list {
        shape {
          dim {
          }
        }
      }
    }
  }
  attr {
    key: "use_locking"
    value {
      b: true
    }
  }
  attr {
    key: "validate_shape"
    value {
      b: true
    }
  }
}
node {
  name: "save/Assign_48"
  op: "Assign"
  input: "device_dummy_7"
  input: "save/RestoreV2_1:47"
  device: "/device:CPU:0"
  attr {
    key: "T"
    value {
      type: DT_FLOAT
    }
  }
  attr {
    key: "_class"
    value {
      list {
        s: "loc:@device_dummy_7"
      }
    }
  }
  attr {
    key: "_output_shapes"
    value {
      list {
        shape {
          dim {
          }
        }
      }
    }
  }
  attr {
    key: "use_locking"
    value {
      b: true
    }
  }
  attr {
    key: "validate_shape"
    value {
      b: true
    }
  }
}
node {
  name: "save/Assign_49"
  op: "Assign"
  input: "device_dummy_8"
  input: "save/RestoreV2_1:48"
  device: "/device:CPU:0"
  attr {
    key: "T"
    value {
      type: DT_FLOAT
    }
  }
  attr {
    key: "_class"
    value {
      list {
        s: "loc:@device_dummy_8"
      }
    }
  }
  attr {
    key: "_output_shapes"
    value {
      list {
        shape {
          dim {
          }
        }
      }
    }
  }
  attr {
    key: "use_locking"
    value {
      b: true
    }
  }
  attr {
    key: "validate_shape"
    value {
      b: true
    }
  }
}
node {
  name: "save/Assign_50"
  op: "Assign"
  input: "device_dummy_9"
  input: "save/RestoreV2_1:49"
  device: "/device:CPU:0"
  attr {
    key: "T"
    value {
      type: DT_FLOAT
    }
  }
  attr {
    key: "_class"
    value {
      list {
        s: "loc:@device_dummy_9"
      }
    }
  }
  attr {
    key: "_output_shapes"
    value {
      list {
        shape {
          dim {
          }
        }
      }
    }
  }
  attr {
    key: "use_locking"
    value {
      b: true
    }
  }
  attr {
    key: "validate_shape"
    value {
      b: true
    }
  }
}
node {
  name: "save/FertileStatsDeserialize"
  op: "FertileStatsDeserialize"
  input: "stats-0"
  input: "save/RestoreV2_1:50"
  input: "^stats-0/CreateFertileStatsVariable"
  device: "/device:CPU:0"
  attr {
    key: "params"
    value {
      s: "\"\007\n\005\r\000\000\000\000*\007\n\005\r\000\000\000\000028\350\007`\002j\005\r\000\000\200Br\005\r\000\000zCz\005\r\244p}?\250\001\350 "
    }
  }
}
node {
  name: "save/FertileStatsDeserialize_1"
  op: "FertileStatsDeserialize"
  input: "stats-10"
  input: "save/RestoreV2_1:51"
  input: "^stats-10/CreateFertileStatsVariable"
  device: "/device:CPU:0"
  attr {
    key: "params"
    value {
      s: "\"\007\n\005\r\000\000\000\000*\007\n\005\r\000\000\000\000028\350\007`\002j\005\r\000\000\200Br\005\r\000\000zCz\005\r\244p}?\250\001\350 "
    }
  }
}
node {
  name: "save/FertileStatsDeserialize_2"
  op: "FertileStatsDeserialize"
  input: "stats-11"
  input: "save/RestoreV2_1:52"
  input: "^stats-11/CreateFertileStatsVariable"
  device: "/device:CPU:0"
  attr {
    key: "params"
    value {
      s: "\"\007\n\005\r\000\000\000\000*\007\n\005\r\000\000\000\000028\350\007`\002j\005\r\000\000\200Br\005\r\000\000zCz\005\r\244p}?\250\001\350 "
    }
  }
}
node {
  name: "save/FertileStatsDeserialize_3"
  op: "FertileStatsDeserialize"
  input: "stats-12"
  input: "save/RestoreV2_1:53"
  input: "^stats-12/CreateFertileStatsVariable"
  device: "/device:CPU:0"
  attr {
    key: "params"
    value {
      s: "\"\007\n\005\r\000\000\000\000*\007\n\005\r\000\000\000\000028\350\007`\002j\005\r\000\000\200Br\005\r\000\000zCz\005\r\244p}?\250\001\350 "
    }
  }
}
node {
  name: "save/FertileStatsDeserialize_4"
  op: "FertileStatsDeserialize"
  input: "stats-13"
  input: "save/RestoreV2_1:54"
  input: "^stats-13/CreateFertileStatsVariable"
  device: "/device:CPU:0"
  attr {
    key: "params"
    value {
      s: "\"\007\n\005\r\000\000\000\000*\007\n\005\r\000\000\000\000028\350\007`\002j\005\r\000\000\200Br\005\r\000\000zCz\005\r\244p}?\250\001\350 "
    }
  }
}
node {
  name: "save/FertileStatsDeserialize_5"
  op: "FertileStatsDeserialize"
  input: "stats-14"
  input: "save/RestoreV2_1:55"
  input: "^stats-14/CreateFertileStatsVariable"
  device: "/device:CPU:0"
  attr {
    key: "params"
    value {
      s: "\"\007\n\005\r\000\000\000\000*\007\n\005\r\000\000\000\000028\350\007`\002j\005\r\000\000\200Br\005\r\000\000zCz\005\r\244p}?\250\001\350 "
    }
  }
}
node {
  name: "save/FertileStatsDeserialize_6"
  op: "FertileStatsDeserialize"
  input: "stats-15"
  input: "save/RestoreV2_1:56"
  input: "^stats-15/CreateFertileStatsVariable"
  device: "/device:CPU:0"
  attr {
    key: "params"
    value {
      s: "\"\007\n\005\r\000\000\000\000*\007\n\005\r\000\000\000\000028\350\007`\002j\005\r\000\000\200Br\005\r\000\000zCz\005\r\244p}?\250\001\350 "
    }
  }
}
node {
  name: "save/FertileStatsDeserialize_7"
  op: "FertileStatsDeserialize"
  input: "stats-16"
  input: "save/RestoreV2_1:57"
  input: "^stats-16/CreateFertileStatsVariable"
  device: "/device:CPU:0"
  attr {
    key: "params"
    value {
      s: "\"\007\n\005\r\000\000\000\000*\007\n\005\r\000\000\000\000028\350\007`\002j\005\r\000\000\200Br\005\r\000\000zCz\005\r\244p}?\250\001\350 "
    }
  }
}
node {
  name: "save/FertileStatsDeserialize_8"
  op: "FertileStatsDeserialize"
  input: "stats-17"
  input: "save/RestoreV2_1:58"
  input: "^stats-17/CreateFertileStatsVariable"
  device: "/device:CPU:0"
  attr {
    key: "params"
    value {
      s: "\"\007\n\005\r\000\000\000\000*\007\n\005\r\000\000\000\000028\350\007`\002j\005\r\000\000\200Br\005\r\000\000zCz\005\r\244p}?\250\001\350 "
    }
  }
}
node {
  name: "save/FertileStatsDeserialize_9"
  op: "FertileStatsDeserialize"
  input: "stats-18"
  input: "save/RestoreV2_1:59"
  input: "^stats-18/CreateFertileStatsVariable"
  device: "/device:CPU:0"
  attr {
    key: "params"
    value {
      s: "\"\007\n\005\r\000\000\000\000*\007\n\005\r\000\000\000\000028\350\007`\002j\005\r\000\000\200Br\005\r\000\000zCz\005\r\244p}?\250\001\350 "
    }
  }
}
node {
  name: "save/FertileStatsDeserialize_10"
  op: "FertileStatsDeserialize"
  input: "stats-19"
  input: "save/RestoreV2_1:60"
  input: "^stats-19/CreateFertileStatsVariable"
  device: "/device:CPU:0"
  attr {
    key: "params"
    value {
      s: "\"\007\n\005\r\000\000\000\000*\007\n\005\r\000\000\000\000028\350\007`\002j\005\r\000\000\200Br\005\r\000\000zCz\005\r\244p}?\250\001\350 "
    }
  }
}
node {
  name: "save/FertileStatsDeserialize_11"
  op: "FertileStatsDeserialize"
  input: "stats-1"
  input: "save/RestoreV2_1:61"
  input: "^stats-1/CreateFertileStatsVariable"
  device: "/device:CPU:0"
  attr {
    key: "params"
    value {
      s: "\"\007\n\005\r\000\000\000\000*\007\n\005\r\000\000\000\000028\350\007`\002j\005\r\000\000\200Br\005\r\000\000zCz\005\r\244p}?\250\001\350 "
    }
  }
}
node {
  name: "save/FertileStatsDeserialize_12"
  op: "FertileStatsDeserialize"
  input: "stats-20"
  input: "save/RestoreV2_1:62"
  input: "^stats-20/CreateFertileStatsVariable"
  device: "/device:CPU:0"
  attr {
    key: "params"
    value {
      s: "\"\007\n\005\r\000\000\000\000*\007\n\005\r\000\000\000\000028\350\007`\002j\005\r\000\000\200Br\005\r\000\000zCz\005\r\244p}?\250\001\350 "
    }
  }
}
node {
  name: "save/FertileStatsDeserialize_13"
  op: "FertileStatsDeserialize"
  input: "stats-21"
  input: "save/RestoreV2_1:63"
  input: "^stats-21/CreateFertileStatsVariable"
  device: "/device:CPU:0"
  attr {
    key: "params"
    value {
      s: "\"\007\n\005\r\000\000\000\000*\007\n\005\r\000\000\000\000028\350\007`\002j\005\r\000\000\200Br\005\r\000\000zCz\005\r\244p}?\250\001\350 "
    }
  }
}
node {
  name: "save/FertileStatsDeserialize_14"
  op: "FertileStatsDeserialize"
  input: "stats-22"
  input: "save/RestoreV2_1:64"
  input: "^stats-22/CreateFertileStatsVariable"
  device: "/device:CPU:0"
  attr {
    key: "params"
    value {
      s: "\"\007\n\005\r\000\000\000\000*\007\n\005\r\000\000\000\000028\350\007`\002j\005\r\000\000\200Br\005\r\000\000zCz\005\r\244p}?\250\001\350 "
    }
  }
}
node {
  name: "save/FertileStatsDeserialize_15"
  op: "FertileStatsDeserialize"
  input: "stats-23"
  input: "save/RestoreV2_1:65"
  input: "^stats-23/CreateFertileStatsVariable"
  device: "/device:CPU:0"
  attr {
    key: "params"
    value {
      s: "\"\007\n\005\r\000\000\000\000*\007\n\005\r\000\000\000\000028\350\007`\002j\005\r\000\000\200Br\005\r\000\000zCz\005\r\244p}?\250\001\350 "
    }
  }
}
node {
  name: "save/FertileStatsDeserialize_16"
  op: "FertileStatsDeserialize"
  input: "stats-24"
  input: "save/RestoreV2_1:66"
  input: "^stats-24/CreateFertileStatsVariable"
  device: "/device:CPU:0"
  attr {
    key: "params"
    value {
      s: "\"\007\n\005\r\000\000\000\000*\007\n\005\r\000\000\000\000028\350\007`\002j\005\r\000\000\200Br\005\r\000\000zCz\005\r\244p}?\250\001\350 "
    }
  }
}
node {
  name: "save/FertileStatsDeserialize_17"
  op: "FertileStatsDeserialize"
  input: "stats-25"
  input: "save/RestoreV2_1:67"
  input: "^stats-25/CreateFertileStatsVariable"
  device: "/device:CPU:0"
  attr {
    key: "params"
    value {
      s: "\"\007\n\005\r\000\000\000\000*\007\n\005\r\000\000\000\000028\350\007`\002j\005\r\000\000\200Br\005\r\000\000zCz\005\r\244p}?\250\001\350 "
    }
  }
}
node {
  name: "save/FertileStatsDeserialize_18"
  op: "FertileStatsDeserialize"
  input: "stats-26"
  input: "save/RestoreV2_1:68"
  input: "^stats-26/CreateFertileStatsVariable"
  device: "/device:CPU:0"
  attr {
    key: "params"
    value {
      s: "\"\007\n\005\r\000\000\000\000*\007\n\005\r\000\000\000\000028\350\007`\002j\005\r\000\000\200Br\005\r\000\000zCz\005\r\244p}?\250\001\350 "
    }
  }
}
node {
  name: "save/FertileStatsDeserialize_19"
  op: "FertileStatsDeserialize"
  input: "stats-27"
  input: "save/RestoreV2_1:69"
  input: "^stats-27/CreateFertileStatsVariable"
  device: "/device:CPU:0"
  attr {
    key: "params"
    value {
      s: "\"\007\n\005\r\000\000\000\000*\007\n\005\r\000\000\000\000028\350\007`\002j\005\r\000\000\200Br\005\r\000\000zCz\005\r\244p}?\250\001\350 "
    }
  }
}
node {
  name: "save/FertileStatsDeserialize_20"
  op: "FertileStatsDeserialize"
  input: "stats-28"
  input: "save/RestoreV2_1:70"
  input: "^stats-28/CreateFertileStatsVariable"
  device: "/device:CPU:0"
  attr {
    key: "params"
    value {
      s: "\"\007\n\005\r\000\000\000\000*\007\n\005\r\000\000\000\000028\350\007`\002j\005\r\000\000\200Br\005\r\000\000zCz\005\r\244p}?\250\001\350 "
    }
  }
}
node {
  name: "save/FertileStatsDeserialize_21"
  op: "FertileStatsDeserialize"
  input: "stats-29"
  input: "save/RestoreV2_1:71"
  input: "^stats-29/CreateFertileStatsVariable"
  device: "/device:CPU:0"
  attr {
    key: "params"
    value {
      s: "\"\007\n\005\r\000\000\000\000*\007\n\005\r\000\000\000\000028\350\007`\002j\005\r\000\000\200Br\005\r\000\000zCz\005\r\244p}?\250\001\350 "
    }
  }
}
node {
  name: "save/FertileStatsDeserialize_22"
  op: "FertileStatsDeserialize"
  input: "stats-2"
  input: "save/RestoreV2_1:72"
  input: "^stats-2/CreateFertileStatsVariable"
  device: "/device:CPU:0"
  attr {
    key: "params"
    value {
      s: "\"\007\n\005\r\000\000\000\000*\007\n\005\r\000\000\000\000028\350\007`\002j\005\r\000\000\200Br\005\r\000\000zCz\005\r\244p}?\250\001\350 "
    }
  }
}
node {
  name: "save/FertileStatsDeserialize_23"
  op: "FertileStatsDeserialize"
  input: "stats-30"
  input: "save/RestoreV2_1:73"
  input: "^stats-30/CreateFertileStatsVariable"
  device: "/device:CPU:0"
  attr {
    key: "params"
    value {
      s: "\"\007\n\005\r\000\000\000\000*\007\n\005\r\000\000\000\000028\350\007`\002j\005\r\000\000\200Br\005\r\000\000zCz\005\r\244p}?\250\001\350 "
    }
  }
}
node {
  name: "save/FertileStatsDeserialize_24"
  op: "FertileStatsDeserialize"
  input: "stats-31"
  input: "save/RestoreV2_1:74"
  input: "^stats-31/CreateFertileStatsVariable"
  device: "/device:CPU:0"
  attr {
    key: "params"
    value {
      s: "\"\007\n\005\r\000\000\000\000*\007\n\005\r\000\000\000\000028\350\007`\002j\005\r\000\000\200Br\005\r\000\000zCz\005\r\244p}?\250\001\350 "
    }
  }
}
node {
  name: "save/FertileStatsDeserialize_25"
  op: "FertileStatsDeserialize"
  input: "stats-32"
  input: "save/RestoreV2_1:75"
  input: "^stats-32/CreateFertileStatsVariable"
  device: "/device:CPU:0"
  attr {
    key: "params"
    value {
      s: "\"\007\n\005\r\000\000\000\000*\007\n\005\r\000\000\000\000028\350\007`\002j\005\r\000\000\200Br\005\r\000\000zCz\005\r\244p}?\250\001\350 "
    }
  }
}
node {
  name: "save/FertileStatsDeserialize_26"
  op: "FertileStatsDeserialize"
  input: "stats-33"
  input: "save/RestoreV2_1:76"
  input: "^stats-33/CreateFertileStatsVariable"
  device: "/device:CPU:0"
  attr {
    key: "params"
    value {
      s: "\"\007\n\005\r\000\000\000\000*\007\n\005\r\000\000\000\000028\350\007`\002j\005\r\000\000\200Br\005\r\000\000zCz\005\r\244p}?\250\001\350 "
    }
  }
}
node {
  name: "save/FertileStatsDeserialize_27"
  op: "FertileStatsDeserialize"
  input: "stats-34"
  input: "save/RestoreV2_1:77"
  input: "^stats-34/CreateFertileStatsVariable"
  device: "/device:CPU:0"
  attr {
    key: "params"
    value {
      s: "\"\007\n\005\r\000\000\000\000*\007\n\005\r\000\000\000\000028\350\007`\002j\005\r\000\000\200Br\005\r\000\000zCz\005\r\244p}?\250\001\350 "
    }
  }
}
node {
  name: "save/FertileStatsDeserialize_28"
  op: "FertileStatsDeserialize"
  input: "stats-35"
  input: "save/RestoreV2_1:78"
  input: "^stats-35/CreateFertileStatsVariable"
  device: "/device:CPU:0"
  attr {
    key: "params"
    value {
      s: "\"\007\n\005\r\000\000\000\000*\007\n\005\r\000\000\000\000028\350\007`\002j\005\r\000\000\200Br\005\r\000\000zCz\005\r\244p}?\250\001\350 "
    }
  }
}
node {
  name: "save/FertileStatsDeserialize_29"
  op: "FertileStatsDeserialize"
  input: "stats-36"
  input: "save/RestoreV2_1:79"
  input: "^stats-36/CreateFertileStatsVariable"
  device: "/device:CPU:0"
  attr {
    key: "params"
    value {
      s: "\"\007\n\005\r\000\000\000\000*\007\n\005\r\000\000\000\000028\350\007`\002j\005\r\000\000\200Br\005\r\000\000zCz\005\r\244p}?\250\001\350 "
    }
  }
}
node {
  name: "save/FertileStatsDeserialize_30"
  op: "FertileStatsDeserialize"
  input: "stats-37"
  input: "save/RestoreV2_1:80"
  input: "^stats-37/CreateFertileStatsVariable"
  device: "/device:CPU:0"
  attr {
    key: "params"
    value {
      s: "\"\007\n\005\r\000\000\000\000*\007\n\005\r\000\000\000\000028\350\007`\002j\005\r\000\000\200Br\005\r\000\000zCz\005\r\244p}?\250\001\350 "
    }
  }
}
node {
  name: "save/FertileStatsDeserialize_31"
  op: "FertileStatsDeserialize"
  input: "stats-38"
  input: "save/RestoreV2_1:81"
  input: "^stats-38/CreateFertileStatsVariable"
  device: "/device:CPU:0"
  attr {
    key: "params"
    value {
      s: "\"\007\n\005\r\000\000\000\000*\007\n\005\r\000\000\000\000028\350\007`\002j\005\r\000\000\200Br\005\r\000\000zCz\005\r\244p}?\250\001\350 "
    }
  }
}
node {
  name: "save/FertileStatsDeserialize_32"
  op: "FertileStatsDeserialize"
  input: "stats-39"
  input: "save/RestoreV2_1:82"
  input: "^stats-39/CreateFertileStatsVariable"
  device: "/device:CPU:0"
  attr {
    key: "params"
    value {
      s: "\"\007\n\005\r\000\000\000\000*\007\n\005\r\000\000\000\000028\350\007`\002j\005\r\000\000\200Br\005\r\000\000zCz\005\r\244p}?\250\001\350 "
    }
  }
}
node {
  name: "save/FertileStatsDeserialize_33"
  op: "FertileStatsDeserialize"
  input: "stats-3"
  input: "save/RestoreV2_1:83"
  input: "^stats-3/CreateFertileStatsVariable"
  device: "/device:CPU:0"
  attr {
    key: "params"
    value {
      s: "\"\007\n\005\r\000\000\000\000*\007\n\005\r\000\000\000\000028\350\007`\002j\005\r\000\000\200Br\005\r\000\000zCz\005\r\244p}?\250\001\350 "
    }
  }
}
node {
  name: "save/FertileStatsDeserialize_34"
  op: "FertileStatsDeserialize"
  input: "stats-40"
  input: "save/RestoreV2_1:84"
  input: "^stats-40/CreateFertileStatsVariable"
  device: "/device:CPU:0"
  attr {
    key: "params"
    value {
      s: "\"\007\n\005\r\000\000\000\000*\007\n\005\r\000\000\000\000028\350\007`\002j\005\r\000\000\200Br\005\r\000\000zCz\005\r\244p}?\250\001\350 "
    }
  }
}
node {
  name: "save/FertileStatsDeserialize_35"
  op: "FertileStatsDeserialize"
  input: "stats-41"
  input: "save/RestoreV2_1:85"
  input: "^stats-41/CreateFertileStatsVariable"
  device: "/device:CPU:0"
  attr {
    key: "params"
    value {
      s: "\"\007\n\005\r\000\000\000\000*\007\n\005\r\000\000\000\000028\350\007`\002j\005\r\000\000\200Br\005\r\000\000zCz\005\r\244p}?\250\001\350 "
    }
  }
}
node {
  name: "save/FertileStatsDeserialize_36"
  op: "FertileStatsDeserialize"
  input: "stats-42"
  input: "save/RestoreV2_1:86"
  input: "^stats-42/CreateFertileStatsVariable"
  device: "/device:CPU:0"
  attr {
    key: "params"
    value {
      s: "\"\007\n\005\r\000\000\000\000*\007\n\005\r\000\000\000\000028\350\007`\002j\005\r\000\000\200Br\005\r\000\000zCz\005\r\244p}?\250\001\350 "
    }
  }
}
node {
  name: "save/FertileStatsDeserialize_37"
  op: "FertileStatsDeserialize"
  input: "stats-43"
  input: "save/RestoreV2_1:87"
  input: "^stats-43/CreateFertileStatsVariable"
  device: "/device:CPU:0"
  attr {
    key: "params"
    value {
      s: "\"\007\n\005\r\000\000\000\000*\007\n\005\r\000\000\000\000028\350\007`\002j\005\r\000\000\200Br\005\r\000\000zCz\005\r\244p}?\250\001\350 "
    }
  }
}
node {
  name: "save/FertileStatsDeserialize_38"
  op: "FertileStatsDeserialize"
  input: "stats-44"
  input: "save/RestoreV2_1:88"
  input: "^stats-44/CreateFertileStatsVariable"
  device: "/device:CPU:0"
  attr {
    key: "params"
    value {
      s: "\"\007\n\005\r\000\000\000\000*\007\n\005\r\000\000\000\000028\350\007`\002j\005\r\000\000\200Br\005\r\000\000zCz\005\r\244p}?\250\001\350 "
    }
  }
}
node {
  name: "save/FertileStatsDeserialize_39"
  op: "FertileStatsDeserialize"
  input: "stats-45"
  input: "save/RestoreV2_1:89"
  input: "^stats-45/CreateFertileStatsVariable"
  device: "/device:CPU:0"
  attr {
    key: "params"
    value {
      s: "\"\007\n\005\r\000\000\000\000*\007\n\005\r\000\000\000\000028\350\007`\002j\005\r\000\000\200Br\005\r\000\000zCz\005\r\244p}?\250\001\350 "
    }
  }
}
node {
  name: "save/FertileStatsDeserialize_40"
  op: "FertileStatsDeserialize"
  input: "stats-46"
  input: "save/RestoreV2_1:90"
  input: "^stats-46/CreateFertileStatsVariable"
  device: "/device:CPU:0"
  attr {
    key: "params"
    value {
      s: "\"\007\n\005\r\000\000\000\000*\007\n\005\r\000\000\000\000028\350\007`\002j\005\r\000\000\200Br\005\r\000\000zCz\005\r\244p}?\250\001\350 "
    }
  }
}
node {
  name: "save/FertileStatsDeserialize_41"
  op: "FertileStatsDeserialize"
  input: "stats-47"
  input: "save/RestoreV2_1:91"
  input: "^stats-47/CreateFertileStatsVariable"
  device: "/device:CPU:0"
  attr {
    key: "params"
    value {
      s: "\"\007\n\005\r\000\000\000\000*\007\n\005\r\000\000\000\000028\350\007`\002j\005\r\000\000\200Br\005\r\000\000zCz\005\r\244p}?\250\001\350 "
    }
  }
}
node {
  name: "save/FertileStatsDeserialize_42"
  op: "FertileStatsDeserialize"
  input: "stats-48"
  input: "save/RestoreV2_1:92"
  input: "^stats-48/CreateFertileStatsVariable"
  device: "/device:CPU:0"
  attr {
    key: "params"
    value {
      s: "\"\007\n\005\r\000\000\000\000*\007\n\005\r\000\000\000\000028\350\007`\002j\005\r\000\000\200Br\005\r\000\000zCz\005\r\244p}?\250\001\350 "
    }
  }
}
node {
  name: "save/FertileStatsDeserialize_43"
  op: "FertileStatsDeserialize"
  input: "stats-49"
  input: "save/RestoreV2_1:93"
  input: "^stats-49/CreateFertileStatsVariable"
  device: "/device:CPU:0"
  attr {
    key: "params"
    value {
      s: "\"\007\n\005\r\000\000\000\000*\007\n\005\r\000\000\000\000028\350\007`\002j\005\r\000\000\200Br\005\r\000\000zCz\005\r\244p}?\250\001\350 "
    }
  }
}
node {
  name: "save/FertileStatsDeserialize_44"
  op: "FertileStatsDeserialize"
  input: "stats-4"
  input: "save/RestoreV2_1:94"
  input: "^stats-4/CreateFertileStatsVariable"
  device: "/device:CPU:0"
  attr {
    key: "params"
    value {
      s: "\"\007\n\005\r\000\000\000\000*\007\n\005\r\000\000\000\000028\350\007`\002j\005\r\000\000\200Br\005\r\000\000zCz\005\r\244p}?\250\001\350 "
    }
  }
}
node {
  name: "save/FertileStatsDeserialize_45"
  op: "FertileStatsDeserialize"
  input: "stats-5"
  input: "save/RestoreV2_1:95"
  input: "^stats-5/CreateFertileStatsVariable"
  device: "/device:CPU:0"
  attr {
    key: "params"
    value {
      s: "\"\007\n\005\r\000\000\000\000*\007\n\005\r\000\000\000\000028\350\007`\002j\005\r\000\000\200Br\005\r\000\000zCz\005\r\244p}?\250\001\350 "
    }
  }
}
node {
  name: "save/FertileStatsDeserialize_46"
  op: "FertileStatsDeserialize"
  input: "stats-6"
  input: "save/RestoreV2_1:96"
  input: "^stats-6/CreateFertileStatsVariable"
  device: "/device:CPU:0"
  attr {
    key: "params"
    value {
      s: "\"\007\n\005\r\000\000\000\000*\007\n\005\r\000\000\000\000028\350\007`\002j\005\r\000\000\200Br\005\r\000\000zCz\005\r\244p}?\250\001\350 "
    }
  }
}
node {
  name: "save/FertileStatsDeserialize_47"
  op: "FertileStatsDeserialize"
  input: "stats-7"
  input: "save/RestoreV2_1:97"
  input: "^stats-7/CreateFertileStatsVariable"
  device: "/device:CPU:0"
  attr {
    key: "params"
    value {
      s: "\"\007\n\005\r\000\000\000\000*\007\n\005\r\000\000\000\000028\350\007`\002j\005\r\000\000\200Br\005\r\000\000zCz\005\r\244p}?\250\001\350 "
    }
  }
}
node {
  name: "save/FertileStatsDeserialize_48"
  op: "FertileStatsDeserialize"
  input: "stats-8"
  input: "save/RestoreV2_1:98"
  input: "^stats-8/CreateFertileStatsVariable"
  device: "/device:CPU:0"
  attr {
    key: "params"
    value {
      s: "\"\007\n\005\r\000\000\000\000*\007\n\005\r\000\000\000\000028\350\007`\002j\005\r\000\000\200Br\005\r\000\000zCz\005\r\244p}?\250\001\350 "
    }
  }
}
node {
  name: "save/FertileStatsDeserialize_49"
  op: "FertileStatsDeserialize"
  input: "stats-9"
  input: "save/RestoreV2_1:99"
  input: "^stats-9/CreateFertileStatsVariable"
  device: "/device:CPU:0"
  attr {
    key: "params"
    value {
      s: "\"\007\n\005\r\000\000\000\000*\007\n\005\r\000\000\000\000028\350\007`\002j\005\r\000\000\200Br\005\r\000\000zCz\005\r\244p}?\250\001\350 "
    }
  }
}
node {
  name: "save/TreeDeserialize"
  op: "TreeDeserialize"
  input: "tree-0"
  input: "save/RestoreV2_1:100"
  input: "^tree-0/CreateTreeVariable"
  device: "/device:CPU:0"
  attr {
    key: "params"
    value {
      s: "\"\007\n\005\r\000\000\000\000*\007\n\005\r\000\000\000\000028\350\007`\002j\005\r\000\000\200Br\005\r\000\000zCz\005\r\244p}?\250\001\350 "
    }
  }
}
node {
  name: "save/TreeDeserialize_1"
  op: "TreeDeserialize"
  input: "tree-10"
  input: "save/RestoreV2_1:101"
  input: "^tree-10/CreateTreeVariable"
  device: "/device:CPU:0"
  attr {
    key: "params"
    value {
      s: "\"\007\n\005\r\000\000\000\000*\007\n\005\r\000\000\000\000028\350\007`\002j\005\r\000\000\200Br\005\r\000\000zCz\005\r\244p}?\250\001\350 "
    }
  }
}
node {
  name: "save/TreeDeserialize_2"
  op: "TreeDeserialize"
  input: "tree-11"
  input: "save/RestoreV2_1:102"
  input: "^tree-11/CreateTreeVariable"
  device: "/device:CPU:0"
  attr {
    key: "params"
    value {
      s: "\"\007\n\005\r\000\000\000\000*\007\n\005\r\000\000\000\000028\350\007`\002j\005\r\000\000\200Br\005\r\000\000zCz\005\r\244p}?\250\001\350 "
    }
  }
}
node {
  name: "save/TreeDeserialize_3"
  op: "TreeDeserialize"
  input: "tree-12"
  input: "save/RestoreV2_1:103"
  input: "^tree-12/CreateTreeVariable"
  device: "/device:CPU:0"
  attr {
    key: "params"
    value {
      s: "\"\007\n\005\r\000\000\000\000*\007\n\005\r\000\000\000\000028\350\007`\002j\005\r\000\000\200Br\005\r\000\000zCz\005\r\244p}?\250\001\350 "
    }
  }
}
node {
  name: "save/TreeDeserialize_4"
  op: "TreeDeserialize"
  input: "tree-13"
  input: "save/RestoreV2_1:104"
  input: "^tree-13/CreateTreeVariable"
  device: "/device:CPU:0"
  attr {
    key: "params"
    value {
      s: "\"\007\n\005\r\000\000\000\000*\007\n\005\r\000\000\000\000028\350\007`\002j\005\r\000\000\200Br\005\r\000\000zCz\005\r\244p}?\250\001\350 "
    }
  }
}
node {
  name: "save/TreeDeserialize_5"
  op: "TreeDeserialize"
  input: "tree-14"
  input: "save/RestoreV2_1:105"
  input: "^tree-14/CreateTreeVariable"
  device: "/device:CPU:0"
  attr {
    key: "params"
    value {
      s: "\"\007\n\005\r\000\000\000\000*\007\n\005\r\000\000\000\000028\350\007`\002j\005\r\000\000\200Br\005\r\000\000zCz\005\r\244p}?\250\001\350 "
    }
  }
}
node {
  name: "save/TreeDeserialize_6"
  op: "TreeDeserialize"
  input: "tree-15"
  input: "save/RestoreV2_1:106"
  input: "^tree-15/CreateTreeVariable"
  device: "/device:CPU:0"
  attr {
    key: "params"
    value {
      s: "\"\007\n\005\r\000\000\000\000*\007\n\005\r\000\000\000\000028\350\007`\002j\005\r\000\000\200Br\005\r\000\000zCz\005\r\244p}?\250\001\350 "
    }
  }
}
node {
  name: "save/TreeDeserialize_7"
  op: "TreeDeserialize"
  input: "tree-16"
  input: "save/RestoreV2_1:107"
  input: "^tree-16/CreateTreeVariable"
  device: "/device:CPU:0"
  attr {
    key: "params"
    value {
      s: "\"\007\n\005\r\000\000\000\000*\007\n\005\r\000\000\000\000028\350\007`\002j\005\r\000\000\200Br\005\r\000\000zCz\005\r\244p}?\250\001\350 "
    }
  }
}
node {
  name: "save/TreeDeserialize_8"
  op: "TreeDeserialize"
  input: "tree-17"
  input: "save/RestoreV2_1:108"
  input: "^tree-17/CreateTreeVariable"
  device: "/device:CPU:0"
  attr {
    key: "params"
    value {
      s: "\"\007\n\005\r\000\000\000\000*\007\n\005\r\000\000\000\000028\350\007`\002j\005\r\000\000\200Br\005\r\000\000zCz\005\r\244p}?\250\001\350 "
    }
  }
}
node {
  name: "save/TreeDeserialize_9"
  op: "TreeDeserialize"
  input: "tree-18"
  input: "save/RestoreV2_1:109"
  input: "^tree-18/CreateTreeVariable"
  device: "/device:CPU:0"
  attr {
    key: "params"
    value {
      s: "\"\007\n\005\r\000\000\000\000*\007\n\005\r\000\000\000\000028\350\007`\002j\005\r\000\000\200Br\005\r\000\000zCz\005\r\244p}?\250\001\350 "
    }
  }
}
node {
  name: "save/TreeDeserialize_10"
  op: "TreeDeserialize"
  input: "tree-19"
  input: "save/RestoreV2_1:110"
  input: "^tree-19/CreateTreeVariable"
  device: "/device:CPU:0"
  attr {
    key: "params"
    value {
      s: "\"\007\n\005\r\000\000\000\000*\007\n\005\r\000\000\000\000028\350\007`\002j\005\r\000\000\200Br\005\r\000\000zCz\005\r\244p}?\250\001\350 "
    }
  }
}
node {
  name: "save/TreeDeserialize_11"
  op: "TreeDeserialize"
  input: "tree-1"
  input: "save/RestoreV2_1:111"
  input: "^tree-1/CreateTreeVariable"
  device: "/device:CPU:0"
  attr {
    key: "params"
    value {
      s: "\"\007\n\005\r\000\000\000\000*\007\n\005\r\000\000\000\000028\350\007`\002j\005\r\000\000\200Br\005\r\000\000zCz\005\r\244p}?\250\001\350 "
    }
  }
}
node {
  name: "save/TreeDeserialize_12"
  op: "TreeDeserialize"
  input: "tree-20"
  input: "save/RestoreV2_1:112"
  input: "^tree-20/CreateTreeVariable"
  device: "/device:CPU:0"
  attr {
    key: "params"
    value {
      s: "\"\007\n\005\r\000\000\000\000*\007\n\005\r\000\000\000\000028\350\007`\002j\005\r\000\000\200Br\005\r\000\000zCz\005\r\244p}?\250\001\350 "
    }
  }
}
node {
  name: "save/TreeDeserialize_13"
  op: "TreeDeserialize"
  input: "tree-21"
  input: "save/RestoreV2_1:113"
  input: "^tree-21/CreateTreeVariable"
  device: "/device:CPU:0"
  attr {
    key: "params"
    value {
      s: "\"\007\n\005\r\000\000\000\000*\007\n\005\r\000\000\000\000028\350\007`\002j\005\r\000\000\200Br\005\r\000\000zCz\005\r\244p}?\250\001\350 "
    }
  }
}
node {
  name: "save/TreeDeserialize_14"
  op: "TreeDeserialize"
  input: "tree-22"
  input: "save/RestoreV2_1:114"
  input: "^tree-22/CreateTreeVariable"
  device: "/device:CPU:0"
  attr {
    key: "params"
    value {
      s: "\"\007\n\005\r\000\000\000\000*\007\n\005\r\000\000\000\000028\350\007`\002j\005\r\000\000\200Br\005\r\000\000zCz\005\r\244p}?\250\001\350 "
    }
  }
}
node {
  name: "save/TreeDeserialize_15"
  op: "TreeDeserialize"
  input: "tree-23"
  input: "save/RestoreV2_1:115"
  input: "^tree-23/CreateTreeVariable"
  device: "/device:CPU:0"
  attr {
    key: "params"
    value {
      s: "\"\007\n\005\r\000\000\000\000*\007\n\005\r\000\000\000\000028\350\007`\002j\005\r\000\000\200Br\005\r\000\000zCz\005\r\244p}?\250\001\350 "
    }
  }
}
node {
  name: "save/TreeDeserialize_16"
  op: "TreeDeserialize"
  input: "tree-24"
  input: "save/RestoreV2_1:116"
  input: "^tree-24/CreateTreeVariable"
  device: "/device:CPU:0"
  attr {
    key: "params"
    value {
      s: "\"\007\n\005\r\000\000\000\000*\007\n\005\r\000\000\000\000028\350\007`\002j\005\r\000\000\200Br\005\r\000\000zCz\005\r\244p}?\250\001\350 "
    }
  }
}
node {
  name: "save/TreeDeserialize_17"
  op: "TreeDeserialize"
  input: "tree-25"
  input: "save/RestoreV2_1:117"
  input: "^tree-25/CreateTreeVariable"
  device: "/device:CPU:0"
  attr {
    key: "params"
    value {
      s: "\"\007\n\005\r\000\000\000\000*\007\n\005\r\000\000\000\000028\350\007`\002j\005\r\000\000\200Br\005\r\000\000zCz\005\r\244p}?\250\001\350 "
    }
  }
}
node {
  name: "save/TreeDeserialize_18"
  op: "TreeDeserialize"
  input: "tree-26"
  input: "save/RestoreV2_1:118"
  input: "^tree-26/CreateTreeVariable"
  device: "/device:CPU:0"
  attr {
    key: "params"
    value {
      s: "\"\007\n\005\r\000\000\000\000*\007\n\005\r\000\000\000\000028\350\007`\002j\005\r\000\000\200Br\005\r\000\000zCz\005\r\244p}?\250\001\350 "
    }
  }
}
node {
  name: "save/TreeDeserialize_19"
  op: "TreeDeserialize"
  input: "tree-27"
  input: "save/RestoreV2_1:119"
  input: "^tree-27/CreateTreeVariable"
  device: "/device:CPU:0"
  attr {
    key: "params"
    value {
      s: "\"\007\n\005\r\000\000\000\000*\007\n\005\r\000\000\000\000028\350\007`\002j\005\r\000\000\200Br\005\r\000\000zCz\005\r\244p}?\250\001\350 "
    }
  }
}
node {
  name: "save/TreeDeserialize_20"
  op: "TreeDeserialize"
  input: "tree-28"
  input: "save/RestoreV2_1:120"
  input: "^tree-28/CreateTreeVariable"
  device: "/device:CPU:0"
  attr {
    key: "params"
    value {
      s: "\"\007\n\005\r\000\000\000\000*\007\n\005\r\000\000\000\000028\350\007`\002j\005\r\000\000\200Br\005\r\000\000zCz\005\r\244p}?\250\001\350 "
    }
  }
}
node {
  name: "save/TreeDeserialize_21"
  op: "TreeDeserialize"
  input: "tree-29"
  input: "save/RestoreV2_1:121"
  input: "^tree-29/CreateTreeVariable"
  device: "/device:CPU:0"
  attr {
    key: "params"
    value {
      s: "\"\007\n\005\r\000\000\000\000*\007\n\005\r\000\000\000\000028\350\007`\002j\005\r\000\000\200Br\005\r\000\000zCz\005\r\244p}?\250\001\350 "
    }
  }
}
node {
  name: "save/TreeDeserialize_22"
  op: "TreeDeserialize"
  input: "tree-2"
  input: "save/RestoreV2_1:122"
  input: "^tree-2/CreateTreeVariable"
  device: "/device:CPU:0"
  attr {
    key: "params"
    value {
      s: "\"\007\n\005\r\000\000\000\000*\007\n\005\r\000\000\000\000028\350\007`\002j\005\r\000\000\200Br\005\r\000\000zCz\005\r\244p}?\250\001\350 "
    }
  }
}
node {
  name: "save/TreeDeserialize_23"
  op: "TreeDeserialize"
  input: "tree-30"
  input: "save/RestoreV2_1:123"
  input: "^tree-30/CreateTreeVariable"
  device: "/device:CPU:0"
  attr {
    key: "params"
    value {
      s: "\"\007\n\005\r\000\000\000\000*\007\n\005\r\000\000\000\000028\350\007`\002j\005\r\000\000\200Br\005\r\000\000zCz\005\r\244p}?\250\001\350 "
    }
  }
}
node {
  name: "save/TreeDeserialize_24"
  op: "TreeDeserialize"
  input: "tree-31"
  input: "save/RestoreV2_1:124"
  input: "^tree-31/CreateTreeVariable"
  device: "/device:CPU:0"
  attr {
    key: "params"
    value {
      s: "\"\007\n\005\r\000\000\000\000*\007\n\005\r\000\000\000\000028\350\007`\002j\005\r\000\000\200Br\005\r\000\000zCz\005\r\244p}?\250\001\350 "
    }
  }
}
node {
  name: "save/TreeDeserialize_25"
  op: "TreeDeserialize"
  input: "tree-32"
  input: "save/RestoreV2_1:125"
  input: "^tree-32/CreateTreeVariable"
  device: "/device:CPU:0"
  attr {
    key: "params"
    value {
      s: "\"\007\n\005\r\000\000\000\000*\007\n\005\r\000\000\000\000028\350\007`\002j\005\r\000\000\200Br\005\r\000\000zCz\005\r\244p}?\250\001\350 "
    }
  }
}
node {
  name: "save/TreeDeserialize_26"
  op: "TreeDeserialize"
  input: "tree-33"
  input: "save/RestoreV2_1:126"
  input: "^tree-33/CreateTreeVariable"
  device: "/device:CPU:0"
  attr {
    key: "params"
    value {
      s: "\"\007\n\005\r\000\000\000\000*\007\n\005\r\000\000\000\000028\350\007`\002j\005\r\000\000\200Br\005\r\000\000zCz\005\r\244p}?\250\001\350 "
    }
  }
}
node {
  name: "save/TreeDeserialize_27"
  op: "TreeDeserialize"
  input: "tree-34"
  input: "save/RestoreV2_1:127"
  input: "^tree-34/CreateTreeVariable"
  device: "/device:CPU:0"
  attr {
    key: "params"
    value {
      s: "\"\007\n\005\r\000\000\000\000*\007\n\005\r\000\000\000\000028\350\007`\002j\005\r\000\000\200Br\005\r\000\000zCz\005\r\244p}?\250\001\350 "
    }
  }
}
node {
  name: "save/TreeDeserialize_28"
  op: "TreeDeserialize"
  input: "tree-35"
  input: "save/RestoreV2_1:128"
  input: "^tree-35/CreateTreeVariable"
  device: "/device:CPU:0"
  attr {
    key: "params"
    value {
      s: "\"\007\n\005\r\000\000\000\000*\007\n\005\r\000\000\000\000028\350\007`\002j\005\r\000\000\200Br\005\r\000\000zCz\005\r\244p}?\250\001\350 "
    }
  }
}
node {
  name: "save/TreeDeserialize_29"
  op: "TreeDeserialize"
  input: "tree-36"
  input: "save/RestoreV2_1:129"
  input: "^tree-36/CreateTreeVariable"
  device: "/device:CPU:0"
  attr {
    key: "params"
    value {
      s: "\"\007\n\005\r\000\000\000\000*\007\n\005\r\000\000\000\000028\350\007`\002j\005\r\000\000\200Br\005\r\000\000zCz\005\r\244p}?\250\001\350 "
    }
  }
}
node {
  name: "save/TreeDeserialize_30"
  op: "TreeDeserialize"
  input: "tree-37"
  input: "save/RestoreV2_1:130"
  input: "^tree-37/CreateTreeVariable"
  device: "/device:CPU:0"
  attr {
    key: "params"
    value {
      s: "\"\007\n\005\r\000\000\000\000*\007\n\005\r\000\000\000\000028\350\007`\002j\005\r\000\000\200Br\005\r\000\000zCz\005\r\244p}?\250\001\350 "
    }
  }
}
node {
  name: "save/TreeDeserialize_31"
  op: "TreeDeserialize"
  input: "tree-38"
  input: "save/RestoreV2_1:131"
  input: "^tree-38/CreateTreeVariable"
  device: "/device:CPU:0"
  attr {
    key: "params"
    value {
      s: "\"\007\n\005\r\000\000\000\000*\007\n\005\r\000\000\000\000028\350\007`\002j\005\r\000\000\200Br\005\r\000\000zCz\005\r\244p}?\250\001\350 "
    }
  }
}
node {
  name: "save/TreeDeserialize_32"
  op: "TreeDeserialize"
  input: "tree-39"
  input: "save/RestoreV2_1:132"
  input: "^tree-39/CreateTreeVariable"
  device: "/device:CPU:0"
  attr {
    key: "params"
    value {
      s: "\"\007\n\005\r\000\000\000\000*\007\n\005\r\000\000\000\000028\350\007`\002j\005\r\000\000\200Br\005\r\000\000zCz\005\r\244p}?\250\001\350 "
    }
  }
}
node {
  name: "save/TreeDeserialize_33"
  op: "TreeDeserialize"
  input: "tree-3"
  input: "save/RestoreV2_1:133"
  input: "^tree-3/CreateTreeVariable"
  device: "/device:CPU:0"
  attr {
    key: "params"
    value {
      s: "\"\007\n\005\r\000\000\000\000*\007\n\005\r\000\000\000\000028\350\007`\002j\005\r\000\000\200Br\005\r\000\000zCz\005\r\244p}?\250\001\350 "
    }
  }
}
node {
  name: "save/TreeDeserialize_34"
  op: "TreeDeserialize"
  input: "tree-40"
  input: "save/RestoreV2_1:134"
  input: "^tree-40/CreateTreeVariable"
  device: "/device:CPU:0"
  attr {
    key: "params"
    value {
      s: "\"\007\n\005\r\000\000\000\000*\007\n\005\r\000\000\000\000028\350\007`\002j\005\r\000\000\200Br\005\r\000\000zCz\005\r\244p}?\250\001\350 "
    }
  }
}
node {
  name: "save/TreeDeserialize_35"
  op: "TreeDeserialize"
  input: "tree-41"
  input: "save/RestoreV2_1:135"
  input: "^tree-41/CreateTreeVariable"
  device: "/device:CPU:0"
  attr {
    key: "params"
    value {
      s: "\"\007\n\005\r\000\000\000\000*\007\n\005\r\000\000\000\000028\350\007`\002j\005\r\000\000\200Br\005\r\000\000zCz\005\r\244p}?\250\001\350 "
    }
  }
}
node {
  name: "save/TreeDeserialize_36"
  op: "TreeDeserialize"
  input: "tree-42"
  input: "save/RestoreV2_1:136"
  input: "^tree-42/CreateTreeVariable"
  device: "/device:CPU:0"
  attr {
    key: "params"
    value {
      s: "\"\007\n\005\r\000\000\000\000*\007\n\005\r\000\000\000\000028\350\007`\002j\005\r\000\000\200Br\005\r\000\000zCz\005\r\244p}?\250\001\350 "
    }
  }
}
node {
  name: "save/TreeDeserialize_37"
  op: "TreeDeserialize"
  input: "tree-43"
  input: "save/RestoreV2_1:137"
  input: "^tree-43/CreateTreeVariable"
  device: "/device:CPU:0"
  attr {
    key: "params"
    value {
      s: "\"\007\n\005\r\000\000\000\000*\007\n\005\r\000\000\000\000028\350\007`\002j\005\r\000\000\200Br\005\r\000\000zCz\005\r\244p}?\250\001\350 "
    }
  }
}
node {
  name: "save/TreeDeserialize_38"
  op: "TreeDeserialize"
  input: "tree-44"
  input: "save/RestoreV2_1:138"
  input: "^tree-44/CreateTreeVariable"
  device: "/device:CPU:0"
  attr {
    key: "params"
    value {
      s: "\"\007\n\005\r\000\000\000\000*\007\n\005\r\000\000\000\000028\350\007`\002j\005\r\000\000\200Br\005\r\000\000zCz\005\r\244p}?\250\001\350 "
    }
  }
}
node {
  name: "save/TreeDeserialize_39"
  op: "TreeDeserialize"
  input: "tree-45"
  input: "save/RestoreV2_1:139"
  input: "^tree-45/CreateTreeVariable"
  device: "/device:CPU:0"
  attr {
    key: "params"
    value {
      s: "\"\007\n\005\r\000\000\000\000*\007\n\005\r\000\000\000\000028\350\007`\002j\005\r\000\000\200Br\005\r\000\000zCz\005\r\244p}?\250\001\350 "
    }
  }
}
node {
  name: "save/TreeDeserialize_40"
  op: "TreeDeserialize"
  input: "tree-46"
  input: "save/RestoreV2_1:140"
  input: "^tree-46/CreateTreeVariable"
  device: "/device:CPU:0"
  attr {
    key: "params"
    value {
      s: "\"\007\n\005\r\000\000\000\000*\007\n\005\r\000\000\000\000028\350\007`\002j\005\r\000\000\200Br\005\r\000\000zCz\005\r\244p}?\250\001\350 "
    }
  }
}
node {
  name: "save/TreeDeserialize_41"
  op: "TreeDeserialize"
  input: "tree-47"
  input: "save/RestoreV2_1:141"
  input: "^tree-47/CreateTreeVariable"
  device: "/device:CPU:0"
  attr {
    key: "params"
    value {
      s: "\"\007\n\005\r\000\000\000\000*\007\n\005\r\000\000\000\000028\350\007`\002j\005\r\000\000\200Br\005\r\000\000zCz\005\r\244p}?\250\001\350 "
    }
  }
}
node {
  name: "save/TreeDeserialize_42"
  op: "TreeDeserialize"
  input: "tree-48"
  input: "save/RestoreV2_1:142"
  input: "^tree-48/CreateTreeVariable"
  device: "/device:CPU:0"
  attr {
    key: "params"
    value {
      s: "\"\007\n\005\r\000\000\000\000*\007\n\005\r\000\000\000\000028\350\007`\002j\005\r\000\000\200Br\005\r\000\000zCz\005\r\244p}?\250\001\350 "
    }
  }
}
node {
  name: "save/TreeDeserialize_43"
  op: "TreeDeserialize"
  input: "tree-49"
  input: "save/RestoreV2_1:143"
  input: "^tree-49/CreateTreeVariable"
  device: "/device:CPU:0"
  attr {
    key: "params"
    value {
      s: "\"\007\n\005\r\000\000\000\000*\007\n\005\r\000\000\000\000028\350\007`\002j\005\r\000\000\200Br\005\r\000\000zCz\005\r\244p}?\250\001\350 "
    }
  }
}
node {
  name: "save/TreeDeserialize_44"
  op: "TreeDeserialize"
  input: "tree-4"
  input: "save/RestoreV2_1:144"
  input: "^tree-4/CreateTreeVariable"
  device: "/device:CPU:0"
  attr {
    key: "params"
    value {
      s: "\"\007\n\005\r\000\000\000\000*\007\n\005\r\000\000\000\000028\350\007`\002j\005\r\000\000\200Br\005\r\000\000zCz\005\r\244p}?\250\001\350 "
    }
  }
}
node {
  name: "save/TreeDeserialize_45"
  op: "TreeDeserialize"
  input: "tree-5"
  input: "save/RestoreV2_1:145"
  input: "^tree-5/CreateTreeVariable"
  device: "/device:CPU:0"
  attr {
    key: "params"
    value {
      s: "\"\007\n\005\r\000\000\000\000*\007\n\005\r\000\000\000\000028\350\007`\002j\005\r\000\000\200Br\005\r\000\000zCz\005\r\244p}?\250\001\350 "
    }
  }
}
node {
  name: "save/TreeDeserialize_46"
  op: "TreeDeserialize"
  input: "tree-6"
  input: "save/RestoreV2_1:146"
  input: "^tree-6/CreateTreeVariable"
  device: "/device:CPU:0"
  attr {
    key: "params"
    value {
      s: "\"\007\n\005\r\000\000\000\000*\007\n\005\r\000\000\000\000028\350\007`\002j\005\r\000\000\200Br\005\r\000\000zCz\005\r\244p}?\250\001\350 "
    }
  }
}
node {
  name: "save/TreeDeserialize_47"
  op: "TreeDeserialize"
  input: "tree-7"
  input: "save/RestoreV2_1:147"
  input: "^tree-7/CreateTreeVariable"
  device: "/device:CPU:0"
  attr {
    key: "params"
    value {
      s: "\"\007\n\005\r\000\000\000\000*\007\n\005\r\000\000\000\000028\350\007`\002j\005\r\000\000\200Br\005\r\000\000zCz\005\r\244p}?\250\001\350 "
    }
  }
}
node {
  name: "save/TreeDeserialize_48"
  op: "TreeDeserialize"
  input: "tree-8"
  input: "save/RestoreV2_1:148"
  input: "^tree-8/CreateTreeVariable"
  device: "/device:CPU:0"
  attr {
    key: "params"
    value {
      s: "\"\007\n\005\r\000\000\000\000*\007\n\005\r\000\000\000\000028\350\007`\002j\005\r\000\000\200Br\005\r\000\000zCz\005\r\244p}?\250\001\350 "
    }
  }
}
node {
  name: "save/TreeDeserialize_49"
  op: "TreeDeserialize"
  input: "tree-9"
  input: "save/RestoreV2_1:149"
  input: "^tree-9/CreateTreeVariable"
  device: "/device:CPU:0"
  attr {
    key: "params"
    value {
      s: "\"\007\n\005\r\000\000\000\000*\007\n\005\r\000\000\000\000028\350\007`\002j\005\r\000\000\200Br\005\r\000\000zCz\005\r\244p}?\250\001\350 "
    }
  }
}
node {
  name: "save/restore_shard_1"
  op: "NoOp"
  input: "^save/Assign_1"
  input: "^save/Assign_2"
  input: "^save/Assign_3"
  input: "^save/Assign_4"
  input: "^save/Assign_5"
  input: "^save/Assign_6"
  input: "^save/Assign_7"
  input: "^save/Assign_8"
  input: "^save/Assign_9"
  input: "^save/Assign_10"
  input: "^save/Assign_11"
  input: "^save/Assign_12"
  input: "^save/Assign_13"
  input: "^save/Assign_14"
  input: "^save/Assign_15"
  input: "^save/Assign_16"
  input: "^save/Assign_17"
  input: "^save/Assign_18"
  input: "^save/Assign_19"
  input: "^save/Assign_20"
  input: "^save/Assign_21"
  input: "^save/Assign_22"
  input: "^save/Assign_23"
  input: "^save/Assign_24"
  input: "^save/Assign_25"
  input: "^save/Assign_26"
  input: "^save/Assign_27"
  input: "^save/Assign_28"
  input: "^save/Assign_29"
  input: "^save/Assign_30"
  input: "^save/Assign_31"
  input: "^save/Assign_32"
  input: "^save/Assign_33"
  input: "^save/Assign_34"
  input: "^save/Assign_35"
  input: "^save/Assign_36"
  input: "^save/Assign_37"
  input: "^save/Assign_38"
  input: "^save/Assign_39"
  input: "^save/Assign_40"
  input: "^save/Assign_41"
  input: "^save/Assign_42"
  input: "^save/Assign_43"
  input: "^save/Assign_44"
  input: "^save/Assign_45"
  input: "^save/Assign_46"
  input: "^save/Assign_47"
  input: "^save/Assign_48"
  input: "^save/Assign_49"
  input: "^save/Assign_50"
  input: "^save/FertileStatsDeserialize"
  input: "^save/FertileStatsDeserialize_1"
  input: "^save/FertileStatsDeserialize_2"
  input: "^save/FertileStatsDeserialize_3"
  input: "^save/FertileStatsDeserialize_4"
  input: "^save/FertileStatsDeserialize_5"
  input: "^save/FertileStatsDeserialize_6"
  input: "^save/FertileStatsDeserialize_7"
  input: "^save/FertileStatsDeserialize_8"
  input: "^save/FertileStatsDeserialize_9"
  input: "^save/FertileStatsDeserialize_10"
  input: "^save/FertileStatsDeserialize_11"
  input: "^save/FertileStatsDeserialize_12"
  input: "^save/FertileStatsDeserialize_13"
  input: "^save/FertileStatsDeserialize_14"
  input: "^save/FertileStatsDeserialize_15"
  input: "^save/FertileStatsDeserialize_16"
  input: "^save/FertileStatsDeserialize_17"
  input: "^save/FertileStatsDeserialize_18"
  input: "^save/FertileStatsDeserialize_19"
  input: "^save/FertileStatsDeserialize_20"
  input: "^save/FertileStatsDeserialize_21"
  input: "^save/FertileStatsDeserialize_22"
  input: "^save/FertileStatsDeserialize_23"
  input: "^save/FertileStatsDeserialize_24"
  input: "^save/FertileStatsDeserialize_25"
  input: "^save/FertileStatsDeserialize_26"
  input: "^save/FertileStatsDeserialize_27"
  input: "^save/FertileStatsDeserialize_28"
  input: "^save/FertileStatsDeserialize_29"
  input: "^save/FertileStatsDeserialize_30"
  input: "^save/FertileStatsDeserialize_31"
  input: "^save/FertileStatsDeserialize_32"
  input: "^save/FertileStatsDeserialize_33"
  input: "^save/FertileStatsDeserialize_34"
  input: "^save/FertileStatsDeserialize_35"
  input: "^save/FertileStatsDeserialize_36"
  input: "^save/FertileStatsDeserialize_37"
  input: "^save/FertileStatsDeserialize_38"
  input: "^save/FertileStatsDeserialize_39"
  input: "^save/FertileStatsDeserialize_40"
  input: "^save/FertileStatsDeserialize_41"
  input: "^save/FertileStatsDeserialize_42"
  input: "^save/FertileStatsDeserialize_43"
  input: "^save/FertileStatsDeserialize_44"
  input: "^save/FertileStatsDeserialize_45"
  input: "^save/FertileStatsDeserialize_46"
  input: "^save/FertileStatsDeserialize_47"
  input: "^save/FertileStatsDeserialize_48"
  input: "^save/FertileStatsDeserialize_49"
  input: "^save/TreeDeserialize"
  input: "^save/TreeDeserialize_1"
  input: "^save/TreeDeserialize_2"
  input: "^save/TreeDeserialize_3"
  input: "^save/TreeDeserialize_4"
  input: "^save/TreeDeserialize_5"
  input: "^save/TreeDeserialize_6"
  input: "^save/TreeDeserialize_7"
  input: "^save/TreeDeserialize_8"
  input: "^save/TreeDeserialize_9"
  input: "^save/TreeDeserialize_10"
  input: "^save/TreeDeserialize_11"
  input: "^save/TreeDeserialize_12"
  input: "^save/TreeDeserialize_13"
  input: "^save/TreeDeserialize_14"
  input: "^save/TreeDeserialize_15"
  input: "^save/TreeDeserialize_16"
  input: "^save/TreeDeserialize_17"
  input: "^save/TreeDeserialize_18"
  input: "^save/TreeDeserialize_19"
  input: "^save/TreeDeserialize_20"
  input: "^save/TreeDeserialize_21"
  input: "^save/TreeDeserialize_22"
  input: "^save/TreeDeserialize_23"
  input: "^save/TreeDeserialize_24"
  input: "^save/TreeDeserialize_25"
  input: "^save/TreeDeserialize_26"
  input: "^save/TreeDeserialize_27"
  input: "^save/TreeDeserialize_28"
  input: "^save/TreeDeserialize_29"
  input: "^save/TreeDeserialize_30"
  input: "^save/TreeDeserialize_31"
  input: "^save/TreeDeserialize_32"
  input: "^save/TreeDeserialize_33"
  input: "^save/TreeDeserialize_34"
  input: "^save/TreeDeserialize_35"
  input: "^save/TreeDeserialize_36"
  input: "^save/TreeDeserialize_37"
  input: "^save/TreeDeserialize_38"
  input: "^save/TreeDeserialize_39"
  input: "^save/TreeDeserialize_40"
  input: "^save/TreeDeserialize_41"
  input: "^save/TreeDeserialize_42"
  input: "^save/TreeDeserialize_43"
  input: "^save/TreeDeserialize_44"
  input: "^save/TreeDeserialize_45"
  input: "^save/TreeDeserialize_46"
  input: "^save/TreeDeserialize_47"
  input: "^save/TreeDeserialize_48"
  input: "^save/TreeDeserialize_49"
  device: "/device:CPU:0"
}
node {
  name: "save/restore_all/NoOp"
  op: "NoOp"
  input: "^save/restore_shard"
}
node {
  name: "save/restore_all/NoOp_1"
  op: "NoOp"
  input: "^save/restore_shard_1"
  device: "/device:CPU:0"
}
node {
  name: "save/restore_all"
  op: "NoOp"
  input: "^save/restore_all/NoOp"
  input: "^save/restore_all/NoOp_1"
}
versions {
  producer: 26
}
